isr_best_2.pth (torch, 965527 bytes, 6 tensors)

layer_1.weight f4 [128, 3, 9, 9]
-0.03630357 0.015374122 -0.06146376 0.009914763 0.054608773 0.043897543 0.042894304 0.057659943
0.01532797 -0.033158604 0.050218333 -0.06361986 -0.04839603 0.027747406 0.012618391 0.042709034
-0.010951999 -0.03645757 0.048000902 -0.02273095 -0.04185978 -0.0030176528 -0.019822573 0.009808957
0.016382933 -0.017475031 -0.055133563 0.028185578 0.050055016 -0.035642415 0.01788277 -0.022890888
0.031487163 0.036483012 -0.028225312 -0.04486075 -0.017778322 0.032156825 -0.016133534 -0.048249554
-0.01207126 -0.053461686 -0.009076214 0.051171582 -0.052934248 -0.03239943 0.02819218 0.033721175
0.063487925 0.014050068 0.05336219 0.014611064 0.015079587 0.021998875 -0.00097587693 -0.037216134
-0.0173096 0.053043872 -0.021730782 0.0026973833 0.04740687 -0.044512834 0.006192319 0.0061197584
-0.052164268 0.006071921 -0.025836023 -0.017016917 0.053473566 0.025940508 0.01267173 0.01696915
-0.010863322 -0.059108045 -0.029228672 -0.038142987 -0.019248316 0.057761017 -0.04517803 -0.043515757
0.053937208 0.043813307 -0.02029615 0.016540337 0.032294944 0.027665988 0.042151842 0.030562231
0.06337801 -0.0026837387 -0.045238625 -0.016875513 0.037931576 -0.037169117 0.02492435 0.031124856
0.012703072 -0.038847413 -0.034887612 -0.051084604 0.008644324 0.063535 0.018336708 -0.030167669
0.02083668 -0.020565024 0.057764187 -0.017258674 0.06083332 -0.027375927 -0.004186478 0.04632243
-0.046868555 -0.051845606 0.010897608 0.009931376 0.057538778 -0.04785334 0.054664545 0.04357587
0.019633206 -0.029991543 0.050721575 -0.009547135 0.048803914 0.06425677 -0.038346794 0.046041455
0.025289685 0.034130678 -0.03381179 0.00022961428 0.058783334 0.018200489 -0.057885014 0.06346123
0.0055325422 -0.013431361 0.0067032226 0.0040858593 -0.003423336 -7.14001e-05 -0.018352007 -0.026996946
-0.024290089 -0.013626064 -0.026172547 0.010817907 0.046962075 -0.030886484 0.05124761 0.04459442
-0.014923401 -0.029154118 0.048291523 -0.022189856 -9.446984e-05 0.001883615 -0.042325724 -0.046067335
0.043878812 0.03377646 -0.009889079 0.02940146 -0.038979195 0.048340872 0.045168377 -0.0044593723
-0.047101773 -0.0033429177 0.05158462 0.018126054 0.04564494 0.034389812 0.023203595 9.301023e-05
0.018570455 -0.037356608 -0.04559585 0.019285087 -0.06296708 -0.024013374 0.02043149 0.008948359
-0.025531936 -0.026581762 0.013775901 -0.02287612 0.017180284 -0.017326292 0.04129541 0.0005688783
-0.05566189 0.0461593 -0.021523371 0.06173934 -0.030345183 -0.037818834 -0.05196868 -0.05519316
0.004630788 -0.003937854 -0.04290999 0.060277816 0.040802322 0.058618974 -0.038457163 0.05934675
-0.018316442 0.06178427 0.04202262 -0.021224331 0.055138454 -0.032113247 -0.024988929 -0.03980373
0.044988338 -0.025256611 0.033922307 -0.037129376 0.056269072 -0.049414944 -0.049334876 0.048677985
-0.03199317 0.04679548 0.014053476 0.008493295 0.0057992395 0.050952114 0.033276875 -0.047439907
-0.051910628 0.015531992 0.038662292 -0.0376977 -0.017164143 -0.01872727 0.051559947 -0.0077747926
-0.042611286 0.053960923 -0.029520549 0.054408547 0.039415073 -0.046018172 0.020721702 0.04515137
-0.007936001 -0.058696978 -0.0012324878 -0.036775935 0.050859936 0.015362733 -0.049623817 -0.00059824844
00000000: 0db3 14bd bee3 7b3c 6cc1 7bbd 8871 223c
00000010: 73ad 5f3d e9cd 333d f0b1 2f3d d52c 6c3d
00000020: 2a22 7b3c 51d1 07bd bdb1 4d3d 214b 82bd
00000030: ea3a 46bd 874e e33c 5ebd 4e3c abef 2e3d
00000040: 0370 33bc 8854 15bd 989c 443d 4236 babc
00000050: 2975 2bbd d0c3 45bb f362 a2bc bfb5 203c
00000060: 8035 863c cc27 8fbc bbd3 61bd 71e5 e63c
00000070: 7d06 4d3d c8fd 11bd e37e 923c ac85 bbbc
00000080: aff8 003d 366f 153d c538 e7bc e8bf 37bd
00000090: d8a3 91bc e0b6 033d 792a 84bc 53a1 45bd
000000a0: 89c6 45bc a4fa 5abd 67b4 14bc 4b99 513d
000000b0: 95d1 58bd 44b5 04bd 49f3 e63c 371f 0a3d
000000c0: f505 823d 4232 663c 5092 5a3d 3f63 6f3c
000000d0: 5f10 773c fc36 b43c fed1 7fba f26f 18bd
000000e0: ddcc 8dbc 8844 593d c104 b2bc 95c6 303b
000000f0: b52d 423d 1753 36bd f0e8 ca3b 4188 c83b
00000100: 33aa 55bd f7f6 c63b 11a6 d3bc 1067 8bbc
00000110: 1907 5b3d 3081 d43c 169d 4f3c e302 8b3c
00000120: 13fc 31bc 471b 72bd f870 efbc d23b 1cbd
00000130: a5ae 9dbc d196 6c3d 990c 39bd 943d 32bd
00000140: 43ed 5c3d 9575 333d 1d44 a6bc 9a7f 873c
00000150: b447 043d c8a3 e23c 69a7 2c3d a55d fa3c
00000160: 55cc 813d aae1 2fbb 234c 39bd 843e 8abc
00000170: 245e 1b3d a53e 18bd 272e cc3c 8ef9 fe3c
00000180: 8c20 503c 771e 1fbd 50e6 0ebd 173e 51bd
00000190: eca0 0d3c a31e 823d dd36 963c 3022 f7bc
000001a0: afb1 aa3c fb77 a8bc 249a 6c3d 1062 8dbc
000001b0: 5c2c 793d 7b43 e0bc b92e 89bb 97bc 3d3d
000001c0: 3ef9 3fbd 0f5c 54bd e18b 323c 36b7 223c
000001d0: c8ad 6b3d dd01 44bd eee7 5f3d 9d7c 323d
000001e0: d1d5 a03c d3b0 f5bc 6dc1 4f3d 966b 1cbc
000001f0: 9de6 473d 0e99 833d 8711 1dbd f795 3c3d
00000200: 502c cf3c 9ccc 0b3d 3b7e 0abd 9dc4 7039
00000210: cbc6 703d 3119 953c d618 6dbd f6f7 813d
00000220: 544a b53b 360f 5cbc b5a6 db3b ace2 853b
00000230: 0c5a 60bb a3bc 95b8 f356 96bc b328 ddbc
00000240: 02fc c6bc db3f 5fbc cf67 d6bc 973d 313c
00000250: 4e5b 403d a705 fdbc 04e9 513d a3a8 363d
00000260: 4881 74bc 9ed4 eebc 55cd 453d 80c7 b5bc
00000270: 1c1e c6b8 a2e3 f63a bd5d 2dbd 1ab1 3cbd
00000280: 45ba 333d 2f59 0a3d ce05 22bc 55db f03c
00000290: a6a8 1fbd 1401 463d 7a02 393d ed1f 92bb
000002a0: caed 40bd da14 5bbb 654a 533d 177d 943c
000002b0: 30f6 3a3d 55dc 0c3d 7715 be3c 7d0e c338
000002c0: 1121 983c 3e03 19bd b7c2 3abd c2fb 9d3c
000002d0: e2f4 80bd b2b7 c4bc f15f a73c 239c 123c
000002e0: 5a28 d1bc ffc1 d9bc 51b4 613c b366 bbbc
000002f0: abbd 8c3c deef 8dbc 6025 293d c720 153a
00000300: b9fd 63bd 8911 3d3d c851 b0bc 64e2 7c3d
00000310: 7696 f8bc ece7 1abd 1cdd 54bd 3912 62bd
00000320: debd 973b 1d09 81bb 63c2 2fbd dfe5 763d
00000330: 5620 273d 731a 703d 4285 1dbd 9415 733d
00000340: 5d0c 96bc 8111 7d3d e91f 2c3d a6de adbc
00000350: dcd8 613d 2e89 03bd 95b5 ccbc 3c09 23bd
00000360: b145 383d f4e6 cebc 1ef2 0a3d f914 18bd
00000370: 667a 663d 5367 4abd 5e13 4abd 9162 473d
00000380: 450b 03bd 9eac 3f3d 8d40 663c 7627 0b3c
00000390: 8c07 be3b 2ab3 503d 554d 083d 5950 42bd
000003a0: 3da0 54bd e579 7e3c 5a5c 1e3d e768 1abd
000003b0: d19b 8cbc ef69 99bc 8630 533d b0c3 febb
000003c0: 2c89 2ebd 2106 5d3d 14d5 f1bc 7fdb 5e3d
000003d0: b371 213d 8d7d 3cbd 8fc0 a93c a5f0 383d
000003e0: 0006 02bc 3e6c 70bd 6e8b a1ba 5da2 16bd
000003f0: 8252 503d f9b3 7b3c 5842 4bbd c6d3 1cba

layer_1.bias f4 [128]
-0.060598657 -0.0118323555 0.04134565 0.03163202 0.061918885 -0.020737097 -0.0041699847 -0.04275318
-0.04712733 -0.023708735 0.05682753 -0.019435663 -0.024238152 0.016857775 0.019472133 0.0057781558
-0.0037417165 0.04853529 0.027502809 -0.023844825 0.0014100556 -0.039617073 0.05105642 0.03083022
0.035723634 0.042083606 -0.0036033313 -0.045173522 0.005360896 0.025995217 0.019743115 -0.01194671
0.059282616 -0.062097188 -0.024291186 -0.026966194 0.042563614 0.03774679 -0.051032014 0.047045033
0.007516741 0.05184518 -0.059493706 0.023900926 0.047719043 0.045016184 0.043084625 0.011363523
-0.040925547 -0.007905094 0.04390136 -0.01771136 -0.031850535 0.03535774 0.020903055 0.053063028
0.01453359 0.026177995 0.04521178 -0.030026214 0.058460526 0.051329132 0.0007195794 0.04886043
0.047895357 0.011502461 -0.024474228 0.013291412 0.038697794 -0.037420917 0.0323048 0.039988082
0.030874278 0.0069929906 0.02231531 0.0456866 0.045947187 0.003427661 0.010064851 0.0650884
-0.019215636 0.04236798 -0.057439797 0.02301709 0.028598957 0.022942495 0.042795733 -0.018171575
-0.027831718 -0.03481709 0.034395475 0.023499563 -0.002412386 0.009500951 0.003737695 0.03182711
-0.05460752 -0.03266398 0.014551284 0.038023237 0.049771592 0.03546974 -0.011482243 0.015170944
-0.06205341 -0.007946189 0.04915007 0.0071428027 -0.061925713 -0.020252706 0.004378933 0.055958956
-0.028667679 0.00517402 0.032854654 -0.014702379 -0.0002500862 -0.049639545 -0.05472835 -0.042061977
0.021414038 -0.025514739 -0.021139856 -0.028917776 -0.041392323 -0.024340447 -0.017890753 -0.0038319645
00000000: 4c36 78bd 7fdc 41bc 0e5a 293d 9490 013d
00000010: a89e 7d3d d8e0 a9bc 5ea4 88bb f51d 2fbd
00000020: 9608 41bd d238 c2bc fcc3 683d 8a37 9fbc
00000030: 178f c6bc 5119 8a3c 0684 9f3c af56 bd3b
00000040: 9637 75bb f1cc 463d 924d e13c 3956 c3bc
00000050: 9dd1 b83a 8345 22bd 8920 513d a88f fc3c
00000060: f252 123d dc5f 2c3d de25 6cbb df07 39bd
00000070: 74aa af3b ecf3 d43c 50bc a13c 22bc 43bc
00000080: 54d2 723d 9f59 7ebd 4ffe c6bc 35e8 dcbc
00000090: 2f57 2e3d 619c 1a3d f206 51bd 4bb2 403d
000000a0: fe4e f63b 9d5b 543d acaf 73bd e0cb c33c
000000b0: 0b75 433d e462 383d 8179 303d 122e 3a3c
000000c0: 8ca1 27bd 5e84 01bc ead1 333d 6a17 91bc
000000d0: b575 02bd 47d3 103d e23c ab3c 9e58 593d
000000e0: 4b1e 6e3c 3c73 d63c fd2f 393d 89f9 f5bc
000000f0: 4e74 6f3d 7f3e 523d 28a2 3c3a e021 483d
00000100: ec2d 443d d174 3c3c 2d7e c8bc 39c4 593c
00000110: 9481 1e3d ad46 19bd 0a52 043d 8bca 233d
00000120: 0eec fc3c 7525 e53b 99ce b63c df21 3b3d
00000130: 1e33 3c3d 9ca2 603b 0be7 243c 114d 853d
00000140: 1c6a 9dbc 0c8a 2d3d fe45 6bbd 568e bc3c
00000150: 5c48 ea3c e6f1 bb3c 944a 2f3d 8edc 94bc
00000160: 58ff e3bc 5d9c 0ebd 45e2 0c3d 2882 c03c
00000170: 1f19 1ebb e0a9 1b3c 1ef4 743b 255d 023d
00000180: 23ac 5fbd aaca 05bd 8268 6e3c 41be 1b3d
00000190: 4cdd 4b3d b848 113d 0520 3cbc 8d8f 783c
000001a0: b72b 7ebd bb30 02bc 9551 493d 2c0e ea3b
000001b0: d1a5 7dbd 01e9 a5bc 277d 8f3b 3835 653d
000001c0: 7bd8 eabc d38a a93b 9a92 063d 3fe2 70bc
000001d0: 001e 83b9 d652 4bbd d62a 60bd 2e49 2cbd
000001e0: 7e6c af3c 4904 d1bc 7e2d adbc f9e4 ecbc
000001f0: ff8a 29bd 9e65 c7bc a18f 92bc b221 7bbb

layer_2.weight f4 [64, 128, 5, 5]
-0.015503574 0.011133046 -0.0066088107 -0.00085455464 0.005035629 0.0048450823 0.0014084823 0.0027290934
-0.004729357 0.012031484 0.008077454 -0.006355863 0.0009899362 0.005533754 -0.01061286 -0.0022574351
-0.0021634838 0.0140148895 -0.0052202907 -0.015118547 -0.0059149056 -0.009748448 0.015281844 -0.006469332
0.0059545683 0.015337989 -0.012500143 0.0016305721 0.015568517 -0.005790037 0.005058033 0.0002398355
0.0033547597 -0.018034767 -0.0153731145 0.006880204 -0.009855121 -0.012045509 -0.005392465 0.01415726
-0.00075537636 -0.005919476 -0.004060824 0.00047838275 -0.009670383 0.009502111 0.0008024862 0.010960897
-0.01227358 -0.011247106 -0.004828418 0.004836813 0.011916687 -0.019313231 -6.8913214e-05 -0.0033817831
0.009331558 0.014278055 -0.014700855 -0.01029637 0.001252128 -0.010415953 -0.0015689196 -0.00030546947
-0.0099446885 0.01736423 0.002729466 -0.0117148645 -0.0071372706 0.013072639 -0.019539965 0.006782454
0.009053473 -0.008897575 -0.0041101887 0.012522605 0.01301019 -0.003332465 -0.009860541 0.002041896
-0.0056978525 -0.017179765 0.0035784347 0.0075116376 -0.0119097205 0.002255239 -0.014973393 -0.013149084
-0.010774633 -0.007383252 -0.0053442973 -0.016198507 -0.0028906995 0.013817113 -0.005150158 0.0034920317
0.012682409 0.000604235 0.0037164518 -0.0019206159 -0.006327793 -0.010483298 0.0046970346 0.011171696
0.0057206545 0.0060888687 0.011045023 -0.0017112553 -0.011019337 -0.00093342393 0.01507957 -0.012384293
0.008657789 -0.0018297586 -0.003402985 0.0062019657 0.012137194 0.009209862 0.015292858 0.014730071
-0.0106484145 0.0045860717 0.009365102 0.017257845 0.0061454345 0.011462233 5.5641183e-05 -0.009137383
-0.012621767 0.009774601 0.00065758807 0.0038444656 -0.016475791 -0.011904883 0.011836639 -0.007617537
0.0013953989 0.002651818 0.015193769 -0.0146412235 0.0052839355 0.009230251 -0.002244192 -0.01794873
-0.011830669 -0.013283073 0.014515753 0.0105267735 -0.014318147 0.014002874 -0.01675905 -0.005013357
0.00600613 -0.017761813 -0.0092856 0.008361982 0.012624036 -0.009619948 -0.00281553 0.010625126
-0.0049934583 -0.010281531 0.013757527 -0.0019755594 0.014462775 0.0031695021 -0.012278184 -0.0035884592
-0.0075643435 -0.0033514488 -0.0064012497 -0.0036950307 -0.013671984 0.0048448346 -0.01285472 -0.012165587
0.008527483 0.011043772 0.006876049 0.004117134 0.0071033807 0.008323161 0.017748846 -0.008919438
0.013834318 -0.005019363 -0.01712725 -0.0072088703 0.011825181 0.019526202 -0.020062089 -0.0068261535
-0.014607799 0.005934824 -0.0097411275 0.0014151447 -0.00891484 -0.0030358478 0.0064979666 0.00649723
-0.01754473 -0.018573776 -0.0030918226 0.013863736 0.0007565836 -0.014656176 -0.002380065 -0.014287977
-0.006419257 0.01185465 -0.010464084 0.0067174016 -0.009622959 -0.008142779 0.015059461 -0.017802028
0.0008976592 0.01214246 -0.0146348905 -2.5176438e-05 -0.008596458 -0.008610499 0.007716783 0.0049943654
-0.007486184 -0.014532669 -0.0040091597 0.0012610798 0.007977944 0.014073256 0.008805281 -0.00096969755
0.0036863375 0.0033189352 -0.008914154 0.017103657 0.002834825 -0.008474125 0.0042687277 0.009997904
0.009011303 -0.014107147 0.0016426427 0.0039986367 -0.008736979 -0.015128704 -0.008764973 -0.0142327165
-0.00071134703 -0.014652883 0.0040994664 -0.005591974 -0.0118235815 -0.0071242787 -0.0038285537 0.0072835214
00000000: b402 7ebc 6167 363c b98e d8bb 3104 60ba
00000010: eb01 a53b 7fc3 9e3b d39c b83a 97da 323b
00000020: b9f8 9abb b41f 453c 4c57 043c d844 d0bb
00000030: bfc0 813a 7e54 b53b 90e1 2dbc 7af1 13bb
00000040: 3cc9 0dbb b59e 653c f90e abbb c8b3 77bc
00000050: d3d1 c1bb f4b7 1fbc b360 7a3c b1fc d3bb
00000060: 8a1e c33b 304c 7b3c 66cd 4cbc ecb8 d53a
00000070: 1813 7f3c 5aba bdbb dbbd a53b 5a7c 7b39
00000080: 87db 5b3b a6bd 93bc 84df 7bbc 5673 e13b
00000090: 6077 21bc 875a 45bc 46b3 b0bb daf3 673c
000000a0: 7304 46ba 2af8 c1bb a910 85bb 72cf fa39
000000b0: 8770 1ebc beae 1b3c f05d 523a 5695 333c
000000c0: 2017 49bc c845 38bc b537 9ebb 217e 9e3b
000000d0: 353e 433c c836 9ebc 8085 90b8 e8a0 5dbb
000000e0: 64e3 183c 81ee 693c dbdb 70bc 1bb2 28bc
000000f0: 721e a43a aca7 2abc 35a4 cdba 6b27 a0b9
00000100: 0cef 22bc 6e3f 8e3c d7e0 323b b4ef 3fbc
00000110: c4df e9bb 9f2e 563c 4712 a0bc 593f de3b
00000120: 0555 143c 22c7 11bc c3ae 86bb 9d2b 4d3c
00000130: b128 553c 7c65 5abb 1b8e 21bc 55d1 053b
00000140: 0db5 babb 94bc 8cbc 2c84 6a3b 2f24 f63b
00000150: fd20 43bc a2cc 133b f652 75bc 416f 57bc
00000160: 1688 30bc 35ef f1bb 371f afbb bbb2 84bc
00000170: e471 3dbb 2c61 623c a8c2 a8bb 92da 643b
00000180: e1c9 4f3c 8665 1e3a b78f 733b 2dbd fbba
00000190: 6059 cfbb 24c2 2bbc 95e9 993b 7d09 373c
000001a0: 5474 bb3b 2285 c73b 2ff6 343c 334c e0ba
000001b0: 738a 34bc 05b1 74ba 4d10 773c 7de7 4abc
000001c0: 66d9 0d3c 83d4 efba 9d04 5fbb dc39 cb3b
000001d0: 15db 463c f6e4 163c e58e 7a3c 6556 713c
000001e0: b076 2ebc c246 963b 1670 193c 5360 8d3c
000001f0: a45f c93b 17cc 3b3c 4460 6938 f6b4 15bc
00000200: 87cb 4ebc a625 203c fd61 2c3a 6ef3 7b3b
00000210: 3df8 86bc b30c 43bc 76ee 413c 889c f9bb
00000220: d1e5 b63a 20ca 2d3b 49ef 783c bee1 6fbc
00000230: dd24 ad3b 7b3a 173c 4b13 13bb 3709 93bc
00000240: 6cd5 41bc 3fa1 59bc 7bd3 6d3c 7d78 2c3c
00000250: a996 6abc 4f6c 653c 464a 89bc 1647 a4bb
00000260: 12cf c43b 3981 91bc a122 18bc b200 093c
00000270: 0bd5 4e3c fd9c 1dbc c184 38bb 0215 2e3c
00000280: 2aa0 a3bb de73 28bc 4067 613c 6378 01bb
00000290: 46f5 6c3c 6cb7 4f3b 702a 49bc 5b2c 6bbb
000002a0: 50de f7bb fba3 5bbb 93c1 d1bb 5428 72bb
000002b0: 7500 60bc 6bc1 9e3b 9a9c 52bc 2c52 47bc
000002c0: dbb6 0b3c f0f0 343c 7b50 e13b 06e9 863b
000002d0: 7ac3 e83b de5d 083c 0766 913c d622 12bc
000002e0: 56a9 623c 7879 a4bb 724e 8cbc 6338 ecbb
000002f0: 67be 413c 6af5 9f3c 4059 a4bc edad dfbb
00000300: 8d55 6fbc e978 c23b 4099 1fbc 607c b93a
00000310: 8d0f 12bc 13f5 46bb e5ec d43b b7e6 d43b
00000320: f7b9 8fbc 0828 98bc 2da0 4abb b924 633c
00000330: 7755 463a 7520 70bc ddfa 1bbb 1e18 6abc
00000340: a158 d2bb 023a 423c 8d71 2bbc a61d dc3b
00000350: 9ea9 1dbc 4a69 05bc f5bb 763c 8fd5 91bc
00000360: e450 6b3a 2bf1 463c 2ec7 6fbc fd31 d3b7
00000370: 28d8 0cbc 0d13 0dbc 11dd fc3b c6a7 a33b
00000380: aa4e f5bb 6f1a 6ebc 455f 83bb d14a a53a
00000390: ecb5 023c 8493 663c 0644 103c 4d33 7eba
000003a0: 7b96 713b 7e82 593b ac0c 12bc f81c 8c3c
000003b0: 79c8 393b 0ed7 0abc afe0 8b3b 40ce 233c
000003c0: 25a4 133c aa21 67bc f14d d73a ff06 833b
000003d0: 8c25 0fbc 62de 77bc f69a 0fbc 5730 69bc
000003e0: b179 3aba a512 70bc d154 863b e13c b7bb
000003f0: b2b7 41bc c872 e9bb 79e8 7abb 9baa ee3b

layer_2.bias f4 [64]
0.006380035 -0.012267514 -0.004010157 -0.00060146645 -0.003915154 0.011744421 -0.008507793 -0.0045116423
-0.0026935362 -0.005893494 -0.018680908 0.004075637 0.011239236 -0.004118528 -0.013897473 0.013793397
-0.0055952957 0.0064922846 0.005846328 -0.004765996 0.0035370863 -0.0031908643 -0.0010167718 0.01171685
0.005065534 0.009796907 0.00796664 0.010835317 -0.014225173 -0.016641943 0.001165049 -0.0015152682
0.008475871 0.01542265 0.01688073 0.017433288 -0.012275686 0.018292895 0.0066547557 -0.0048244405
-0.00851099 -0.004656143 0.012301646 -0.01458481 0.005739594 -0.0110741 0.0024788915 -0.015234527
0.016936399 0.0031477257 -0.011609317 -0.0021193104 0.0076995785 -0.0076707294 -0.008990767 -0.008618025
-0.014468419 0.013355944 0.017117124 -0.015341383 -0.012742698 -0.00889204 -0.008335189 0.012804504
00000000: 9d0f d13b affd 48bc a367 83bb bbab 1dba
00000010: b14a 80bb ac6b 403c 4564 0bbc 66d6 93bb
00000020: 0a86 30bb 361e c1bb b408 99bc ec8c 853b
00000030: c624 383c b8f4 86bb 3ab2 63bc b3fd 613c
00000040: be58 b7bb 3bbd d43b 8e92 bf3b 122c 9cbb
00000050: 76ce 673b d21d 51bb 3345 85ba 08f8 3f3c
00000060: c7fc a53b 3583 203c 8386 023c 9d86 313c
00000070: b310 69bc af54 88bc 8fb4 983a f79b c6ba
00000080: 61de 0a3c 48af 7c3c 7549 8a3c 41d0 8e3c
00000090: f51f 49bc fbda 953c 2310 da3b 5716 9ebb
000000a0: ae71 0bbc 8f92 98bb d88c 493c 20f5 6ebc
000000b0: 3413 bc3b 2470 35bc e674 223b 3d9a 79bc
000000c0: 34be 8a3c 134a 4e3b 0135 3ebc 21e4 0abb
000000d0: bf4c fc3b be5a fbbb 034e 13bc 9e32 0dbc
000000e0: f30c 6dbc e4d2 5a3c 3639 8c3c 6d5a 7bbc
000000f0: c0c6 50bc ebaf 11bc 5190 08bc fbc9 513c

layer_3.weight f4 [3, 64, 5, 5]
-0.0168373 0.010419896 0.000504156 0.024278546 -0.0021857298 -0.01213291 -0.008955878 0.019832805
-0.005918577 0.009955993 -0.0037545245 0.004787925 -0.011564251 0.0066743833 0.02145345 -0.008790489
0.01461175 -0.0024591028 -0.0061520543 0.0073553515 0.0015873649 0.016021859 -0.017010365 0.0009600677
0.00011255179 -0.016276838 0.018208157 0.0017088386 -0.005242884 0.023350075 -0.017432984 0.005456636
-0.013749619 0.010763821 -0.01575263 0.019893026 -0.023750473 0.019546341 0.01731297 -0.01619888
0.012854655 0.0072079855 -0.017131284 -0.0062949443 -0.018817188 0.02459519 -0.016890934 -0.0034005
-0.024036774 -0.02020306 0.0011434193 0.007971363 -0.020353364 0.012396233 0.008381088 -0.0045274724
0.016292911 0.0070878575 -0.0135658365 -0.013200233 0.015457808 0.008818659 0.009168203 -0.009785908
0.0032462417 0.007939814 0.0038403948 0.017146213 0.01842962 0.008578145 0.021868017 0.010805254
0.019168274 -0.01004204 -0.018116033 -0.011662707 -0.024164798 0.00014122855 0.0012826899 -0.005163225
0.011122352 0.022751871 -0.008363327 0.006924729 -0.022520376 -0.015566395 -0.010447016 -0.009193203
-0.002622234 -0.011251284 0.015329769 -0.0009040515 -0.0080404375 0.012217639 -0.02428425 -0.018518569
-0.0038503495 -0.0005904457 0.010791654 -0.00031511753 0.004425299 0.0057086344 -0.022389857 0.0054336595
0.018805549 -0.0019714548 0.0026622477 -0.023189822 0.024206296 0.0082559325 -0.012259793 0.00393374
-0.010292073 -0.0106202 0.003956159 0.0076794005 -0.010889416 -0.007946274 0.006142376 0.019268218
0.0144305555 -0.021618128 -0.020779945 0.013011295 -0.012322437 -0.013238805 0.022140676 0.017946033
0.014555181 0.020762138 -0.0018892164 0.008828763 0.018147772 0.018562952 0.024765123 0.0036966298
-0.017580502 0.0116584515 -0.012798079 -0.0040667504 0.0014471684 -0.0040163817 -0.008485153 -0.019891985
0.024538696 0.0062882532 -0.0033509512 0.0130170295 -0.021478273 -0.010139151 0.013631025 0.006183013
0.023340037 0.020589024 -0.008346296 -0.015563283 0.0069738245 -0.016652891 -0.005127507 0.021310218
0.009977385 -0.021814551 0.006465684 0.019341106 3.3122313e-05 0.0004725401 -0.013526604 -0.012506878
-0.015600454 -0.011067307 -0.01327575 -0.012151704 0.0039644088 0.016589554 0.009410657 0.019256204
-0.017378977 0.019294819 0.0041065076 0.00911048 0.007563513 0.004085715 0.012578468 -0.014972069
0.023373367 -0.015132606 0.008949441 -0.01628634 0.0085859215 -0.018207647 -0.003904674 0.009275481
-0.01607923 0.023661839 -0.0033429998 0.0021554995 -0.015736649 -0.006223894 0.017106509 -0.024616284
0.0020889593 -0.007814583 0.012754752 0.01781453 0.0082483515 0.012856672 -0.014021542 0.001309124
0.01305337 0.02282479 0.018727554 0.007233067 0.015179959 -0.015689148 -0.010036529 -0.0138685
0.010941497 -0.0075022345 -0.0031039144 0.017934931 0.020892072 -0.0015361672 -0.0038420276 -0.016949194
-0.009851392 0.023860171 0.018491898 0.0105739655 0.0257334 -0.0017705665 0.012898514 -0.013472456
0.011716348 0.025396194 0.012313198 0.014845172 -0.017794888 -0.01934033 -0.009324019 -0.0027871877
-0.0018523136 -0.011243786 0.0013532146 -0.021964828 -0.00787624 -0.0100840265 0.017005812 -0.021318344
-0.00096696516 0.020150777 -0.0020441085 0.007246537 -0.022093711 -0.0129686305 0.006488669 0.0074906833
00000000: 61ee 89bc 36b8 2a3c 5629 043a cde3 c63c
00000010: 763e 0fbb 1dc9 46bc adbb 12bc 6878 a23c
00000020: 9ff0 c1bb 761e 233c 780e 76bb 07e4 9c3b
00000030: fc77 3dbc c9b4 da3b 25bf af3c fc05 10bc
00000040: 1f66 6f3c e628 21bb 2c97 c9bb 2905 f13b
00000050: 210f d03a 4640 833c 5259 8bbc 0dad 7b3a
00000060: c809 ec38 0157 85bc 4629 953c 1cfb df3a
00000070: 80cc abbb a848 bf3c 9ecf 8ebc 95cd b23b
00000080: 1546 61bc bd5a 303c a90b 81bc b3f6 a23c
00000090: 5a90 c2bc a61f a03c eed3 8d3c 83b3 84bc
000000a0: 559c 523c f730 ec3b e856 8cbc d245 cebb
000000b0: 8126 9abc da7b c93c db5e 8abc ecda 5ebb
000000c0: c5e8 c4bc e380 a5bc c9de 953a 529a 023c
000000d0: 19bc a6bc 9219 4b3c d550 093c 315b 94bb
000000e0: b678 853c 4241 e83b 3e43 5ebc ca45 58bc
000000f0: bf42 7d3c 237c 103c 3b36 163c 1355 20bc
00000100: e6be 543b fe15 023c 22af 7b3b 3776 8c3c
00000110: b7f9 963c 598b 0c3c 8e24 b33c 8508 313c
00000120: c906 9d3c 5e87 24bc 1368 94bc f014 3fbc
00000130: 41f5 c5bc c016 1439 ee1f a83a 4530 a9bb
00000140: 873a 363c 2262 ba3c 5606 09bc d6e8 e23b
00000150: a77c b8bc 310a 7fbc f629 2bbc 179f 16bc
00000160: c9d9 2bbb 4e57 38bc b629 7b3c dffd 6cba
00000170: 0abc 03bc 7e2c 483c c3ef c6bc 41b4 97bc
00000180: 2556 7cbb 24c8 1aba 7acf 303c 5c36 a5b9
00000190: 1902 913b 7f0f bb3b ef6a b7bc d70c b23b
000001a0: 180e 9a3c 8633 01bb 1b79 2e3b 95f8 bdbc
000001b0: 484c c63c e443 073c 4cdd 48bc 9ae6 803b
000001c0: 15a0 28bc 5900 2ebc aba2 813b 7ba3 fb3b
000001d0: 8569 32bc 1731 02bc fc45 c93b 62d8 9d3c
000001e0: 236e 6c3c 8018 b1bc b43a aabc 542d 553c
000001f0: 0ce4 49bc 93e7 58bc 5d60 b53c 8f03 933c
00000200: db78 6e3c 5c15 aa3c 959f f7ba 84a6 103c
00000210: a3aa 943c 5511 983c 3ae0 ca3c 2843 723b
00000220: fc04 90bc 1703 3f3c 09af 51bc 6042 85bb
00000230: eaae bd3a da9b 83bb 5005 0bbc 84f4 a2bc
00000240: 6005 c93c b10d ce3b a29b 5bbb 6145 553c
00000250: 34f3 afbc ae1e 26bc aa54 5f3c df9a ca3b
00000260: 9b33 bf3c 50aa a83c e7be 08bc 24fd 7ebc
00000270: ae84 e43b a56b 88bc a504 a8bb c492 ae3c
00000280: 3078 233c 6eb4 b2bc 17de d33b 3d71 9e3c
00000290: d0ec 0a38 42bf f739 b09e 5dbc a6e9 4cbc
000002a0: 0c99 7fbc a653 35bc 8882 59bc f117 47bc
000002b0: dfe7 813b d1e6 873c 282f 1a3c 30bf 9d3c
000002c0: 5b5e 8ebc 2b10 9e3c e28f 863b 1f44 153c
000002d0: 58d7 f73b 76e1 853b eb15 4e3c 694d 75bc
000002e0: 8179 bf3c c0ee 77bc ada0 123c ee6a 85bc
000002f0: f7ab 0c3c 3428 95bc 8fe5 7fbb 30f8 173c
00000300: 97b8 83bc 79d6 c13c 3b16 5bbb 4843 0d3b
00000310: 25ea 80bc cff1 cbbb f322 8c3c 17a8 c9bc
00000320: ece6 083b bd08 00bc 4ff9 503c c7ef 913c
00000330: 1824 073c caa4 523c 9cba 65bc ea96 ab3a
00000340: cddd 553c 0efb ba3c 876a 993c 5d03 ed3b
00000350: 5db5 783c 8786 80bc 4170 24bc b438 63bc
00000360: f743 333c 4ed5 f5bb 0b6b 4bbb 47ec 923c
00000370: da25 ab3c 3859 c9ba 87ca 7bbb 09d9 8abc
00000380: bc67 21bc 6876 c33c 527c 973c 6d3e 2d3c
00000390: dace d23c 5a12 e8ba 4a54 533c 93bb 5cbc
000003a0: edf5 3f3c ae0b d03c 4cbd 493c 2a39 733c
000003b0: 96c6 91bc 9d6f 9ebc c5c3 18bc 40a9 36bb
000003c0: 55c9 f2ba db37 38bc 595e b13a 95ef b3bc
000003d0: 580b 01bc 7937 25bc c64f 8b3c cfa3 aebc
000003e0: ef7b 7dba 3e13 a53c 73f6 05bb 5c74 ed3b
000003f0: dffd b4bc 617a 54bc e79e d43b 6874 f53b

layer_3.bias f4 [3]
0.021038743 -0.0022271357 -0.0075642453
00000000: 7159 ac3c 23f5 11bb 7ddd f7bb
