super_resolution.onnx (onnx, 964614 bytes, 6 tensors)

layer_1.weight f4 [128, 3, 9, 9]
0	0x3c1ed775	0.009694924
1	0x3ccfd07d	0.02536797
2	0xbc06797f	-0.008207678
3	0xbd12947a	-0.03578613
4	0x3cf5d1ea	0.030007321
5	0xbd685239	-0.05671904
6	0xbb877714	-0.0041340683
7	0x3d366a7c	0.044535145
8	0xbd440bbf	-0.047862764
9	0x3c5088eb	0.012727956
10	0x3d7e9540	0.062154055
11	0xbcd792d1	-0.026315125
12	0xbd19a34d	-0.03750925
13	0x3d0ef024	0.034896985
14	0x3c96fd1e	0.018431243
15	0xbd060c7c	-0.03272675
16	0x3b140454	0.0022585588
17	0xbd693e70	-0.05694431
18	0x3d15cbf4	0.036571458
19	0xbc5122bb	-0.012764628
20	0xbc970655	-0.018435637
21	0xbd3d8fb3	-0.04627962
22	0x3d86700d	0.06564341
23	0xbcec1c36	-0.028822046
24	0xbd4dc30e	-0.050234847
25	0x3d4c02de	0.049807422
26	0xbd82f69f	-0.063946955
27	0xbce6a462	-0.028154556
28	0x3d6a37bf	0.05718207
29	0x3d174798	0.03693351
30	0x3d6854b6	0.05672141
31	0x3d8799dc	0.06621143
32	0x3d3a2630	0.045446575
33	0xbc90015c	-0.017578773
34	0x3d1aca22	0.037790425
35	0xbd7e95e7	-0.062154677
36	0xbd6e49eb	-0.058175962
37	0xbc700afd	-0.014651057
38	0x3d424397	0.04742774
39	0x3d8f250d	0.06989489
40	0xbd24b9bc	-0.040216193
41	0x3d220367	0.039554026
42	0xbbca9bc7	-0.006183121
43	0x3d5385f4	0.05164142
44	0x3c003212	0.007824438
45	0x3d38b2a4	0.04509224
46	0x3d1044ec	0.03522198
47	0x3d484187	0.048890617
48	0xbd1b7386	-0.03795197
49	0xbb8ea09e	-0.004352643
50	0x3d6cb412	0.057788916
51	0xbcb0791c	-0.021542124
52	0xbcc40b16	-0.023931067
53	0xbcdb2e9e	-0.026755627
54	0x3d63941d	0.055561174
55	0x3d2b8bfa	0.04188154
56	0xbc8e9643	-0.017405635
57	0x3d18a1c1	0.037263636
58	0x3ca493e8	0.020090058
59	0x3c4d806c	0.012542825
60	0xbba9ed0f	-0.0051857303
61	0x3d0c2836	0.034218036
62	0x3d57ad6d	0.052655626
63	0xb8a7dc90	-8.0042635e-05
64	0x3be6668e	0.0070312684
65	0x3b895cf0	0.004191987
66	0xbd65759d	-0.056020368
67	0xbd096c98	-0.03355083
68	0x3d0b7f0c	0.03405671
69	0xbd50429e	-0.05084478
70	0x3d68bddb	0.056821685
71	0xbd2b8361	-0.04187334
72	0xbc4c7cdc	-0.012480941
73	0xbd473e52	-0.048643418
74	0x3cb8c828	0.02255638
75	0xbd145cde	-0.036221378
76	0xbc75df02	-0.0150067825
77	0xbd58bb98	-0.05291328
78	0xba5e0a64	-0.0008470176
79	0xbceac131	-0.028656574
80	0xbd505047	-0.05085781
81	0x3d0b5405	0.034015674
82	0x3d3f1fb1	0.046661083
83	0xbccf8875	-0.025333622
84	0xbb66fcac	-0.003524582
85	0xbd59bc3e	-0.053158037
86	0xbcccc65a	-0.024996925
87	0x3cc46c6d	0.023977483
88	0xbd136a2a	-0.035989918
89	0x3d80f527	0.06296759
90	0x3c4988a1	0.012300641
91	0xbd607b4a	-0.054805078
92	0x3d2a4800	0.04157257
93	0xbd43b953	-0.04778416
94	0xbc63ca40	-0.013903201
95	0xbd7eb9fa	-0.06218908
96	0xbd255147	-0.040360715
97	0xbc62aebf	-0.013835608
98	0x3ca59994	0.020214833
99	0x3d1cc9ac	0.038278267
100	0xba2893fb	-0.0006430742
101	0x3d76bf65	0.06024112
102	0xbb3c49e8	-0.0028730575
103	0x3caac627	0.02084644
104	0xbcd90d49	-0.026495593
105	0x3d7bb66c	0.061453268
106	0x3d2a5780	0.041587353
107	0xbce32614	-0.027728118
108	0xbd3bfb39	-0.04589388
109	0xbc6a24b5	-0.014290978
110	0xbcd1a87d	-0.025593037
111	0x3c6e9777	0.014562479
112	0x3cc830e0	0.024437368
113	0x3cbec330	0.023286432
114	0x3d13d858	0.036094993
115	0xbc545fee	-0.012962325
116	0x3d78a909	0.06070808
117	0xbc9ce770	-0.019153327
118	0xbd8028eb	-0.062578045
119	0xbc030993	-0.007997888
120	0x3bbcad03	0.0057579293
121	0x3cb09639	0.021556007
122	0x3d674348	0.05646065
123	0x3cb47ac7	0.022031201
124	0x3d691b0f	0.05691057
125	0x3d0d5191	0.034501616
126	0xbc4ca941	-0.012491525
127	0xbcaad85d	-0.020855123
128	0xbd3684f8	-0.044560403
129	0x3c816156	0.015793484
130	0x3d4dbd87	0.050229575
131	0xbc25b167	-0.010113097
132	0xbcf4342f	-0.02981004
133	0x3d813dce	0.063106164
134	0x3ce1bac2	0.027554873
135	0x3d12fdb8	0.035886496
136	0x3d846100	0.06463814
137	0xbd4b4e5d	-0.04963528
138	0x3cd4a794	0.025958814
139	0xbc737b3b	-0.014860923
140	0x3d2cc496	0.042179666
141	0x3c53b242	0.012920918
142	0x3bd8d03f	0.0066166217
143	0xbcb8e36b	-0.022569379
144	0xbcee4bd4	-0.029088892
145	0x3d11041c	0.03540431
146	0x3c425471	0.011860953
147	0xbcaf868d	-0.021426463
148	0xbd2a8645	-0.041631956
149	0xbd0b096d	-0.033944536
150	0x3becdef6	0.0072287275
151	0x3c69506c	0.0142403655
152	0x3cfc2737	0.030780418
153	0xbd829bd8	-0.06377381
154	0xbd25b659	-0.040457103
155	0xbcca338a	-0.024682779
156	0xbd3a301e	-0.045456044
157	0x3c281bbe	0.0102605205
158	0x3d3d6677	0.046240296
159	0x3c2f2bc5	0.010691588
160	0xbd4a9d0a	-0.04946617
161	0x3a73c3e4	0.00092989043
162	0x3cbeefb6	0.023307662
163	0x3d0fc9a1	0.035104398
164	0x3cfe2074	0.031021334
165	0xbccde27e	-0.025132414
166	0x3c984661	0.018588247
167	0xba9ed566	-0.0012118041
168	0xbd56289b	-0.05228482
169	0xbd725645	-0.059164304
170	0x3cf63176	0.030052882
171	0xbd74fbfa	-0.059810616
172	0xbd1406df	-0.036139365
173	0xbd34d417	-0.044147577
174	0xbd751bdd	-0.059841026
175	0xbce4fd46	-0.027952801
176	0x3cc18ba6	0.02362616
177	0x3d12808c	0.035767123
178	0x3cf5c5e5	0.03000159
179	0x3d47294a	0.04862336
180	0xbd407039	-0.046982024
181	0x3cd331c2	0.025780562
182	0xbccc1689	-0.02491309
183	0x3d05d782	0.032676227
184	0x3c9decac	0.019277893
185	0x3d415f21	0.047209863
186	0x3cb098d8	0.021557257
187	0xbd57c44c	-0.052677438
188	0x3d152327	0.036410477
189	0xbc79430b	-0.015213738
190	0x3c960af7	0.018315775
191	0xbcf9f7d8	-0.030513689
192	0x3afe0297	0.0019379434
193	0xbc17f6ac	-0.00927512
194	0x3cf09079	0.029365765
195	0x3b4d68ef	0.0031343063
196	0x3d09cad4	0.033640698
197	0xbd366165	-0.044526476
198	0xbd7d5704	-0.061850563
199	0x38955303	7.120336e-05
200	0xbc4cc13b	-0.012497242
201	0x3d5f783c	0.054558024
202	0x3d20f3e8	0.039295107
203	0xbd0b8829	-0.0340654
204	0x3cde1c39	0.027113067
205	0xbc8e0563	-0.017336553
206	0xbc1e9b73	-0.009680617
207	0x3c137c64	0.009001825
208	0xbcc3aed1	-0.02388707
209	0xbca2e29a	-0.019883443
210	0xbb7e52c8	-0.0038806666
211	0x3d49aadb	0.049235206
212	0x3cb1d1a0	0.021706402
213	0xbd27d7e0	-0.04097736
214	0xbd3e8652	-0.046514817
215	0x3d2ba217	0.041902628
216	0x3ce99f6a	0.028518397
217	0x3be710fc	0.0070515852
218	0xbd1ef652	-0.038809128
219	0x3d861bbb	0.06548258
220	0xbd13bd78	-0.036069363
221	0xbc1a0586	-0.009400731
222	0xbd630887	-0.055428054
223	0x3c2dc0f6	0.0106050875
224	0xbd09d14f	-0.033646878
225	0x3d5dd992	0.05416257
226	0x3d6d2b78	0.057902783
227	0x3b61ae25	0.0034436074
228	0xbce8c3c9	-0.02841367
229	0x3d83801e	0.06420921
230	0xbc5da531	-0.013528154
231	0x3c2135e6	0.009839511
232	0xbd1e5d55	-0.038663227
233	0xbd6496dd	-0.055807937
234	0x3d4c1eb2	0.04983396
235	0xbc4b7ca4	-0.012419853
236	0xbd33ab56	-0.04386457
237	0x3d74c5a1	0.059758786
238	0xbd382363	-0.044955622
239	0xbbe36ff3	-0.0069408356
240	0x3d83b841	0.06431628
241	0x3cd42380	0.025895834
242	0x3c79a109	0.015236148
243	0x3caa9d9a	0.020827103
244	0xbc0c1119	-0.008548998
245	0xbd56265b	-0.052282672
246	0xbce27145	-0.027641902
247	0xbcc0eeac	-0.023551308
248	0x3cc7ffaa	0.024413902
249	0x3d71d4e4	0.05904092
250	0xbb853e1b	-0.0040662414
251	0xbbfe1f95	-0.0077552297
252	0x3d0f7db0	0.035031974
253	0xbd356346	-0.044284128
254	0xbd6bf7f4	-0.057609513
255	0x3b09f8fd	0.002105295

layer_1.bias f4 [128]
0	0x3d3c1781	0.045920853
1	0x399b746b	0.00029650642
2	0x3d40f9e9	0.047113333
3	0xbd14d509	-0.03633598
4	0x3d2ed450	0.042682946
5	0xbd02c654	-0.03192742
6	0xbd39b82c	-0.045341656
7	0x3ba9e703	0.0051850094
8	0xbc16ef0b	-0.009212266
9	0x3d419856	0.04726442
10	0x3d7a60ef	0.0611276
11	0x3c681528	0.0141652
12	0x3d054671	0.03253788
13	0xbda413f8	-0.08011621
14	0x3c96350b	0.01833584
15	0xbb769e34	-0.0037630918
16	0xbd3a41e2	-0.045472987
17	0xbc8f0297	-0.01745729
18	0x3c85292d	0.016254986
19	0xbb6f8afb	-0.0036551345
20	0x3d303b00	0.043025017
21	0x3cc7dcd5	0.024397293
22	0x3d331836	0.04372426
23	0x3cd3021c	0.025757842
24	0x3cfed5ee	0.031107869
25	0x3bd24858	0.0064173155
26	0xbd233b5c	-0.03985153
27	0x3d28c4e7	0.041203406
28	0x3cabac32	0.020956133
29	0xbd2b401b	-0.041809183
30	0xbd1267fa	-0.03574369
31	0x3db6a9ed	0.089191295
32	0xbc06b57d	-0.008221981
33	0x3d3f08c1	0.046639208
34	0x3a983c18	0.0011614589
35	0xbd5fa8f1	-0.054604474
36	0xbc085ce2	-0.008322926
37	0xbcca837b	-0.024720898
38	0xbd37d414	-0.044879988
39	0xbda3d981	-0.0800047
40	0xbd05bac2	-0.03264881
41	0x3c873f56	0.016509693
42	0x3d7aaa69	0.061197672
43	0xbd7f2be9	-0.062297735
44	0x3c0dd6d3	0.008657175
45	0x3d2fbbaa	0.04290358
46	0x3d8f8bc8	0.07009083
47	0x3d80d90f	0.06291401
48	0x3ba53b8a	0.005042498
49	0xbd0b4720	-0.034003377
50	0xbbc75346	-0.006082925
51	0x3d789ee1	0.060698394
52	0xbce7873d	-0.028262729
53	0x3d45aa15	0.048257906
54	0xbd750f3f	-0.059828993
55	0xbbe30789	-0.0069283885
56	0xbc3356c2	-0.010945978
57	0xbd77445d	-0.06036793
58	0x3cb39f04	0.02192641
59	0xbd6656a0	-0.056234956
60	0xbd05636d	-0.032565523
61	0x3d36b8a6	0.04460969
62	0x3d331f52	0.04373104
63	0x3d6876d0	0.056753933
64	0xbc275a36	-0.010214379
65	0xbd3c9992	-0.046044894
66	0x3d5e4200	0.05426216
67	0x3bc85256	0.006113331
68	0x3ced5051	0.028968962
69	0xbd5bcad6	-0.053660236
70	0xbc5c57ec	-0.013448697
71	0xbadb2a7d	-0.0016721037
72	0xbd768b58	-0.060191482
73	0xbae0d827	-0.0017154262
74	0xbd390acc	-0.045176312
75	0xbd4e9591	-0.050435606
76	0x3baec6ea	0.005333771
77	0xbca0b3fc	-0.019617073
78	0xbc6b9447	-0.014378614
79	0xbd0ff689	-0.035147224
80	0x3d8a4f23	0.067533754
81	0xbc8d637a	-0.017259348
82	0x3d3c6e8b	0.04600386
83	0x39fdfc77	0.0004844402
84	0x3d5173f1	0.05113596
85	0xbcf12ee4	-0.029441305
86	0xbcc8fb6e	-0.024533954
87	0xbd265a90	-0.04061371
88	0x3cd6271d	0.026141698
89	0x3b0f1811	0.0021834413
90	0xbc00e4f9	-0.007867091
91	0xbbba01a6	-0.005676466
92	0x3d31631a	0.0433074
93	0x3c82e86b	0.015979966
94	0x3d42d24d	0.04756384
95	0x3da2e9b1	0.07954729
96	0x3c5718ba	0.013128454
97	0x3c2adb20	0.01042822
98	0x3cfe672e	0.03105506
99	0xbc6bf857	-0.014402471
100	0xbc89aaa8	-0.016805008
101	0xbb894fd4	-0.0041904245
102	0xbbef381c	-0.00730039
103	0xbc6f5a8f	-0.014608993
104	0xbcc2bb1b	-0.02377086
105	0xbc8815b6	-0.016611915
106	0x3ceaa3ea	0.028642613
107	0xbce7bcfb	-0.028288355
108	0xbd456d8e	-0.048200183
109	0xbce97921	-0.028500142
110	0xb8968715	-7.177718e-05
111	0xbacd177e	-0.001564726
112	0x3d128e8c	0.035780475
113	0x3c0b7f1f	0.008514195
114	0xbcd38d31	-0.025824161
115	0xbcbc1f94	-0.022964276
116	0x3cc84c68	0.024450496
117	0x3d427f8f	0.04748493
118	0x3d7dd042	0.06196619
119	0x3c9622ce	0.018327143
120	0xbd20e4a3	-0.039280545
121	0xbcc3cee9	-0.023902373
122	0x3cc11d7b	0.023573628
123	0xbc286e25	-0.010280167
124	0x3c9bb761	0.01900834
125	0xbd40cb58	-0.047068924
126	0xbbfda33d	-0.007740407
127	0xbc294696	-0.01033177

layer_2.weight f4 [64, 128, 5, 5]
0	0x39e16b05	0.0004299508
1	0x3b89f57a	0.0042101713
2	0x3bf0dc00	0.007350445
3	0xbc3b5899	-0.011434698
4	0x3c950f73	0.018195843
5	0x3c7ada76	0.015310874
6	0x3a868705	0.0010263628
7	0xbacffbb2	-0.0015867858
8	0xb98e1b41	-0.00027104656
9	0x3c63adba	0.0138964
10	0xbb488c57	-0.0030601227
11	0x3c28d54a	0.010304758
12	0x3c93da86	0.018048536
13	0x3c48115d	0.012211171
14	0x3c4a0665	0.012330626
15	0x3c819db7	0.015822275
16	0xbb86d094	-0.00411422
17	0xbc1028c8	-0.0087987855
18	0xbb40ef20	-0.0029439405
19	0x3bb39db9	0.0054814485
20	0x3b0c2814	0.0021386193
21	0xbc09dae9	-0.008414009
22	0x3c25016a	0.010071138
23	0x3b855f97	0.004070233
24	0x3b8aa47c	0.004231034
25	0x3c591ef3	0.013252008
26	0x3b8e1fea	0.0043373005
27	0x3b114213	0.0022164627
28	0xbc1959e8	-0.009359814
29	0x3ba5c7ff	0.005059242
30	0x3c503cef	0.01270984
31	0xb8a8bab9	-8.045644e-05
32	0x3b1d86bb	0.0024036604
33	0x3c542723	0.012948784
34	0x3bed3791	0.00723929
35	0xb95299f6	-0.00020084516
36	0x3cbdc2f6	0.023164254
37	0xbb2d8de8	-0.0026482288
38	0xb87b9a08	-5.9986516e-05
39	0xbc0125c4	-0.007882539
40	0xbc1a113b	-0.009403522
41	0xbb28d315	-0.002576058
42	0xbc16aee1	-0.009196968
43	0xbc4f0d68	-0.012637474
44	0x3bbd8c0d	0.0057845176
45	0x3ba8ea38	0.005154874
46	0xbc21ed49	-0.009883233
47	0xbba24f91	-0.0049533327
48	0xbba5ed31	-0.005063676
49	0x3c288c49	0.010287353
50	0xbc4286be	-0.011872945
51	0x3c03da51	0.008047656
52	0xbc621611	-0.013799206
53	0xbc62e13a	-0.0138476435
54	0x3c7e5cfa	0.015525097
55	0x3b844880	0.004036963
56	0xbc8db949	-0.017300265
57	0x3ba6c1a4	0.0050890017
58	0x3c5d8a3b	0.013521726
59	0x3c2f6d2d	0.010707182
60	0x3becde67	0.007228661
61	0x3bc99c69	0.0061526787
62	0xbc5953b1	-0.0132645825
63	0x3c2de5f7	0.01061391
64	0xbc21f3ec	-0.009884816
65	0x3c164d67	0.009173728
66	0xbc20fd8f	-0.009826078
67	0x3b8bfdc9	0.004272197
68	0x3c26e552	0.01018651
69	0x3b8e811c	0.004348887
70	0xbc796a85	-0.01522315
71	0xbc442004	-0.011970524
72	0xbc50ea50	-0.012751177
73	0x3b07a7ac	0.0020699305
74	0x3b76419a	0.0037575723
75	0xbc021acb	-0.007940958
76	0xbc117b3e	-0.008879481
77	0x3b83c40b	0.004021173
78	0x3c94382b	0.01809319
79	0xbc508993	-0.012728113
80	0xbb42a128	-0.0029698107
81	0x3c54496c	0.012956958
82	0xba2263bb	-0.00061946706
83	0xbb893e2b	-0.004188319
84	0x3b0d450a	0.0021556043
85	0xbc1bbac4	-0.009504978
86	0xbb828ef0	-0.0039843246
87	0xbbf97ef5	-0.0076140114
88	0x3c086957	0.008325896
89	0x3c1f5d9b	0.009726907
90	0xbb4502c9	-0.0030061475
91	0xbc8adbf8	-0.016950592
92	0x3c1cdec0	0.009574592
93	0x3c071156	0.008243879
94	0x3c96f6ec	0.018428288
95	0x3c4267b1	0.011865542
96	0xbbfe342f	-0.0077576856
97	0x3b80446c	0.0039144065
98	0xbbb6cefb	-0.005578873
99	0xbba002d2	-0.0048831487
100	0xbc51ecdf	-0.012812822
101	0xbb189df1	-0.00232875
102	0x3c878edb	0.016547611
103	0x3c2b6cff	0.010462998
104	0xbc53a648	-0.0129180625
105	0xbc13a879	-0.009012335
106	0x3adb54d5	0.0016733656
107	0xbb90ced1	-0.0044191857
108	0xbbfba8e5	-0.007680046
109	0xbc6e58b2	-0.014547514
110	0xbbee3cea	-0.007270445
111	0xbc2fb537	-0.010724357
112	0x3cbf2ad3	0.02333585
113	0x3c8771f8	0.016533837
114	0x3bfc5eb0	0.0077017173
115	0xbc66f96f	-0.014097556
116	0x3c0ab0fd	0.008465049
117	0xbb0a1a17	-0.002107268
118	0x3c8cfb4a	0.017209668
119	0x3c204129	0.00978116
120	0xbc9432a4	-0.018090554
121	0x3caec6c7	0.021335019
122	0x3c607b8f	0.013701334
123	0xbc83f49f	-0.016107855
124	0xbbd1dcf5	-0.006404514
125	0xbc868fcb	-0.016425988
126	0x3c0b9974	0.008520473
127	0x3c856988	0.016285673
128	0xbbd2f53e	-0.0064379266
129	0x3a5b6e05	0.0008370581
130	0x3acdef83	0.0015711639
131	0xbb91481c	-0.004433645
132	0xbc426b8f	-0.011866464
133	0x3bbbf090	0.0057354644
134	0xbb8bf8cf	-0.0042716037
135	0x3c8b9196	0.017037194
136	0xba8f4a5f	-0.0010932198
137	0x3c0d9b54	0.00864299
138	0x3bcf566a	0.00632744
139	0x3cc06405	0.023485193
140	0xbbcc337d	-0.006231724
141	0xbcade511	-0.021227391
142	0x3c0efb27	0.008726872
143	0xbc70ac00	-0.0146894455
144	0x38e599dd	0.0001094823
145	0x3bc8afd8	0.006124478
146	0x3c2151d1	0.009846167
147	0xbbc0f586	-0.0058886437
148	0x3c8c8aa7	0.017155958
149	0xbc20acee	-0.009806855
150	0xbb21ecc4	-0.0024707774
151	0x3c0c282f	0.008554502
152	0xbb40d064	-0.0029421085
153	0xbc81d8c1	-0.015850427
154	0x3c64d991	0.0139678875
155	0x3908168a	0.00012978367
156	0x3cab753d	0.020929927
157	0x3c9679a6	0.018368553
158	0x3b8718fe	0.0041228523
159	0xbbc1cc8c	-0.0059142765
160	0x3b8d3e8f	0.004310436
161	0x3c4b27bf	0.012399613
162	0xbb965355	-0.0045875707
163	0x3c88471f	0.016635476
164	0xbc711517	-0.014714501
165	0x3be2735d	0.006910725
166	0x3a81fbf0	0.0009917002
167	0x3abd428d	0.0014439389
168	0x3bdda760	0.0067643374
169	0x3afc8f1d	0.0019268725
170	0x3bc7ffe2	0.0061035017
171	0x3c127bac	0.0089406185
172	0xbc07ea88	-0.008295663
173	0xbb0e5c31	-0.002172243
174	0xbc3144fe	-0.010819672
175	0x3bbbe021	0.0057335054
176	0x3c2efd17	0.0106804585
177	0xbc5621e6	-0.013069605
178	0x3a7c197d	0.0009616835
179	0xbbf6ee12	-0.0075357044
180	0x3bbd98df	0.005786046
181	0xbc84b010	-0.016197234
182	0x3a3b8d80	0.0007154569
183	0xbc646123	-0.013939175
184	0x3c361820	0.01111415
185	0xbae1b179	-0.0017219029
186	0x3c989cca	0.01862945
187	0x3c1686ee	0.009187443
188	0xbc11af6a	-0.00889192
189	0x3c2404d9	0.010010921
190	0x3be793ad	0.007067165
191	0xbc62688c	-0.013818871
192	0x3c55b5c1	0.013043822
193	0xbc803f1f	-0.015655098
194	0x3c8b30dd	0.016991073
195	0xbc851b46	-0.016248357
196	0xbbf92e7e	-0.0076044193
197	0x3c81dd03	0.015852457
198	0xba1287fa	-0.000558972
199	0xbb744e10	-0.0037277974
200	0x3c7cc66a	0.015428165
201	0x3ade57a6	0.0016963377
202	0x3b443568	0.002993906
203	0xbc4ff9d1	-0.012693838
204	0xbc2b764d	-0.010465217
205	0xbc860da8	-0.016363934
206	0x3b282b56	0.0025660596
207	0xbc0f2d3b	-0.008738811
208	0xbc718ed7	-0.014743528
209	0x3c78e096	0.015190264
210	0x3b083c34	0.0020787837
211	0x3a5f0058	0.0008506826
212	0xbc505256	-0.012714943
213	0x3c82c4f1	0.01596305
214	0xbc03d071	-0.008045302
215	0x3c0becc3	0.008540335
216	0xbbb72f10	-0.005590327
217	0xbc66c14d	-0.014084172
218	0x3c36fdc4	0.011168901
219	0x3c432618	0.011910938
220	0xbad1fbc3	-0.0016020465
221	0x3c1e8ebd	0.009677586
222	0x3c40d8a2	0.011770399
223	0xbbafa7b7	-0.0053605693
224	0x3c3f4ad6	0.011675557
225	0x3a84fc29	0.001014595
226	0x3c780fc5	0.0151404785
227	0xbc0bae2a	-0.008525411
228	0xbb24e448	-0.002516048
229	0xbb42088a	-0.002960714
230	0xb97e0506	-0.00024225199
231	0xbb3381b7	-0.0027390548
232	0x3c8864b1	0.016649576
233	0xbb10c7f4	-0.0022091838
234	0x3c40f2e4	0.01177666
235	0xbb6333c0	-0.0034668297
236	0x3ad4b63b	0.0016228625
237	0xbaa0fc38	-0.0012282198
238	0x3c0ca807	0.008584983
239	0x3a331fd1	0.0006833049
240	0x3c6632d5	0.014050205
241	0x3c38bc2f	0.011275335
242	0x3c1b64ac	0.009484451
243	0x3a47f235	0.0007627339
244	0xbb93dec5	-0.00451264
245	0x3bd148fb	0.006386874
246	0x3c35faed	0.011107189
247	0x3ab1c138	0.0013561612
248	0xbb5144f5	-0.003193197
249	0xbc197406	-0.009366041
250	0x3bbdbbb6	0.005790199
251	0x3c41c58a	0.011826882
252	0x3c0e6d88	0.0086931065
253	0x3c87e97a	0.016590822
254	0x3b9527e4	0.0045518745
255	0x3c8455de	0.016154226

layer_2.bias f4 [64]
0	0x3aad8801	0.0013239385
1	0xbb858f8e	-0.004075951
2	0xba4a6e2f	-0.0007722107
3	0x3c45c926	0.012071883
4	0x3c6373f5	0.013882627
5	0x3bf6a3a9	0.007526834
6	0xbbb58b8d	-0.0055403174
7	0x3bf16774	0.007367069
8	0x3c9db512	0.01925138
9	0x3c479fec	0.012184124
10	0xbae207d6	-0.0017244767
11	0xbc6492ad	-0.013950986
12	0x3a9ad8b9	0.0011813856
13	0xbc0a5a2a	-0.008444348
14	0x3beac1c1	0.0071642105
15	0xbbd68afb	-0.0065473295
16	0x3937aaa8	0.00017515814
17	0x3c3e82c7	0.011627859
18	0x3b868967	0.004105735
19	0xbc49e622	-0.012322934
20	0xbb82a820	-0.003987327
21	0xba30c649	-0.0006743414
22	0x3a3735fc	0.00069889403
23	0x3bfd660b	0.0077331117
24	0xbc48534a	-0.012226889
25	0xbb9c4164	-0.0047685374
26	0x3c5908ed	0.013246757
27	0x3b49e1af	0.0030804684
28	0xbb7e7786	-0.0038828566
29	0xbc0aebe7	-0.008479095
30	0x3bef9faf	0.007312737
31	0xbc7b0e4d	-0.015323234
32	0x3c4ae603	0.012383941
33	0xbb809471	-0.0039239456
34	0x3c5cf2b0	0.013485596
35	0x3c094fa9	0.008380809
36	0x3c792f1f	0.015208988
37	0x3c36c63a	0.011155659
38	0x3b275850	0.0025534816
39	0xbc45a5db	-0.012063469
40	0xbc0b1822	-0.00848964
41	0xbc25422d	-0.010086578
42	0x3c14c729	0.009080687
43	0x3c91879d	0.01776486
44	0xbbb5f70e	-0.005553133
45	0x3bdb3710	0.0066899136
46	0x3c645430	0.0139360875
47	0x3c54476b	0.0129564805
48	0xb9a394b6	-0.0003120058
49	0x3bc9c58c	0.0061575826
50	0xbc904f13	-0.01761583
51	0x3b9f6bde	0.0048651537
52	0x3c103096	0.008800646
53	0xbc41e242	-0.011833729
54	0x3bc335e2	0.005957351
55	0x3bbbcdfc	0.0057313424
56	0xbbf36d73	-0.007428819
57	0x39eec558	0.0004554193
58	0x3b2c74c6	0.002631472
59	0x3bde907c	0.006792126
60	0x3b5bfb23	0.0033566437
61	0xbb2b5c56	-0.0026147566
62	0x3b6064d5	0.0034239788
63	0x3b050bd2	0.0020301235

layer_3.weight f4 [3, 64, 5, 5]
0	0x3ba36c5d	0.004987283
1	0x3c39dd02	0.011344196
2	0xba6eb37d	-0.00091057253
3	0x3c929a22	0.017895762
4	0xbc82efc6	-0.015983474
5	0xbb5739c6	-0.0032840832
6	0x3c574f1f	0.0131414225
7	0x3ae7cb23	0.0017684441
8	0x3c940789	0.01807
9	0x3ab07548	0.0013462687
10	0x3c6cab06	0.014445072
11	0x3c3caf2a	0.011516372
12	0x3c9fbcb8	0.019499168
13	0x3c491f43	0.01227552
14	0xbba3e129	-0.0050012064
15	0x3c953af4	0.018216588
16	0x3c27f567	0.01025138
17	0x3c2d344a	0.010571549
18	0xbcb9882c	-0.02264794
19	0x3c93c584	0.018038519
20	0xbc86fcbe	-0.016477939
21	0xbc0aa2f1	-0.0084617
22	0x3bd4b39a	0.0064911367
23	0x3bac15b0	0.005251609
24	0x3aa817aa	0.0012824435
25	0x3cad7f60	0.021178901
26	0xbc2bd56c	-0.010487895
27	0x3c9742d5	0.018464485
28	0x3c9cb886	0.019130956
29	0x3ca0f5a3	0.019648379
30	0x3cd2df3c	0.025741212
31	0xbb0c080c	-0.00213671
32	0xbc1237c7	-0.008924431
33	0x3c6d5387	0.0144852465
34	0x3c6cd8c1	0.014455975
35	0x3ca8a10c	0.020584606
36	0xbc73b579	-0.014874809
37	0x3c9dcbe4	0.019262262
38	0xbc4a80c2	-0.0123598
39	0x3b00645e	0.0019591074
40	0x3c906422	0.017625872
41	0xb9ee418f	-0.00045443742
42	0x3c8bb360	0.017053306
43	0xbcaf4775	-0.021396378
44	0xbcac21e0	-0.021012247
45	0xbc73d5df	-0.014882534
46	0xbcbc02fc	-0.022950642
47	0xbc8c55eb	-0.017130813
48	0x3b0dd920	0.002164431
49	0xbc75b90c	-0.014997732
50	0x3be6507c	0.0070286375
51	0x3ddc77b1	0.10765017
52	0x3d1cb952	0.038262673
53	0x3b8d9fd1	0.00432203
54	0x3c87a324	0.016557284
55	0xbdd7ecc8	-0.10543209
56	0xbd6b57e3	-0.057456862
57	0xbd9a8e93	-0.07546725
58	0xbd52d3f5	-0.05147167
59	0x3c510f35	0.012759973
60	0x3bd4442a	0.0064778524
61	0x3cbb15ca	0.022837538
62	0x3cf965ab	0.030443987
63	0xbc5b6d72	-0.013392793
64	0x3cb08dfc	0.021552078
65	0x3d25b6dd	0.040457595
66	0x3d2c8397	0.04211768
67	0x3d8d9b62	0.069144025
68	0xbc2540d7	-0.01008626
69	0x3ba0396e	0.0048896587
70	0xbd14547e	-0.03621339
71	0xbc03d022	-0.008045228
72	0x3c19d64e	0.009389473
73	0xbd2fa3df	-0.04288089
74	0x3c4e4518	0.012589715
75	0x3c66dd2b	0.0140908165
76	0xbc984f7f	-0.018592594
77	0xbca88139	-0.02056943
78	0xbcba2bcb	-0.02272596
79	0x3a9b7c50	0.001186261
80	0xbc7dd5f4	-0.015492905
81	0x3c994050	0.018707424
82	0x3bc830ac	0.0061093178
83	0xbca65a5e	-0.020306762
84	0xbca2b363	-0.019860929
85	0x3c83a668	0.01607056
86	0x3b8c0e9c	0.0042742025
87	0xbc4aac82	-0.012370231
88	0x3c07d712	0.008291023
89	0x3a1a406c	0.00058842334
90	0x3c10aff4	0.008831013
91	0x3b207ac4	0.0024487237
92	0xbcca98db	-0.02473109
93	0x3c0d2e6e	0.008617027
94	0x3c495f34	0.012290765
95	0x3c3670b4	0.011135269
96	0xbb232b18	-0.0024897512
97	0xbc640641	-0.013917507
98	0xbc9b3ba5	-0.01894934
99	0xbc1fdd01	-0.009757281
100	0x3c498d29	0.012301722
101	0x394ffa81	0.00019834378
102	0xbcc53e7f	-0.024077652
103	0x3bf7ca35	0.0075619468
104	0x3b8d7479	0.004316863
105	0x3c79c870	0.015245542
106	0xbc4b23fa	-0.012398714
107	0x3c01b001	0.007915498
108	0xbcd37974	-0.02581475
109	0xbc95cca0	-0.01828605
110	0x3ca56265	0.02018852
111	0x3c91b762	0.017787639
112	0x3be2ec27	0.006925124
113	0xbaaa0d97	-0.0012974021
114	0xbc61d738	-0.013784222
115	0x3c0cb423	0.00858787
116	0x3c8f179a	0.017467309
117	0x3c894536	0.016756635
118	0xbb3d9ab1	-0.0028931315
119	0x3b9068a9	0.0044070077
120	0xbc8c4e88	-0.01712729
121	0xba8fa01b	-0.0010957749
122	0x39451c45	0.00018797915
123	0x3b38b30c	0.0028182892
124	0x3c8d4ed8	0.01724951
125	0x3cefeab6	0.029286724
126	0x3a3840f7	0.00070287235
127	0x3c96823c	0.018372647
128	0x3cdf754b	0.02727761
129	0xbc8b9538	-0.017038926
130	0xbca4cdd0	-0.02011767
131	0xbbbf3cef	-0.0058361213
132	0xbca03f3b	-0.0195614
133	0xbcd1776e	-0.025569644
134	0xbd32cc65	-0.043651957
135	0xbc9df22e	-0.01928052
136	0xbceba896	-0.028766911
137	0x3c57a963	0.013162944
138	0xbccd6d43	-0.025076514
139	0xbb752897	-0.0037408227
140	0x3cb22a24	0.02174861
141	0xbb644dad	-0.0034836337
142	0xbca3aa40	-0.019978642
143	0x3d431724	0.04762949
144	0x3d58ee54	0.052961662
145	0x3b862418	0.004093658
146	0x3c452ecf	0.012035086
147	0xbc976ddd	-0.018485004
148	0xbc4d8198	-0.012543105
149	0xbd1ab0d2	-0.037766285
150	0xbc08ce44	-0.008349959
151	0xbcae5387	-0.021280063
152	0xbb1d849b	-0.0024035338
153	0x3c905bd4	0.017621912
154	0xbbb9c230	-0.005668901
155	0x3ba2bd86	0.0049664406
156	0xbbd7e87d	-0.006588994
157	0xbc872214	-0.016495742
158	0x3caf6114	0.021408595
159	0x3be6ce6e	0.0070436513
160	0x3ca5bbb3	0.020231104
161	0xbae5b605	-0.001752556
162	0x3c99c271	0.018769475
163	0xbc96ed4c	-0.018423699
164	0x3c8135e9	0.015772777
165	0x3bdb1353	0.0066856532
166	0x3c5fbb34	0.013655473
167	0x3b06f4d4	0.0020592706
168	0xbc90fdba	-0.017699111
169	0x3cb1ea9f	0.021718321
170	0xbc95e000	-0.018295288
171	0x3c8c2d87	0.017111553
172	0x3c4cd442	0.012501778
173	0xbc8a1308	-0.016854778
174	0x3c02d0bc	0.007984336
175	0x3cce85db	0.025210312
176	0xbc91ca24	-0.017796583
177	0x3b9dc219	0.004814398
178	0xbb969401	-0.00459528
179	0xbc3fc2d3	-0.011704165
180	0x3ca6d038	0.020362958
181	0xbc8a63bf	-0.016893266
182	0x3a8fd0a5	0.0010972215
183	0xbc495981	-0.012289406
184	0x3b932c00	0.004491329
185	0xbc30ca91	-0.010790483
186	0x3cb2d74c	0.021831177
187	0x3b43113b	0.0029764909
188	0xbc8d540e	-0.017251994
189	0x3ca33849	0.0199243
190	0x3cb4d535	0.022074321
191	0x3cb2a9e3	0.021809524
192	0x3bd0ba93	0.0063698976
193	0xbc144629	-0.009049931
194	0xbccb58d4	-0.02482263
195	0x3b0fc0e9	0.0021935052
196	0x3abfcf62	0.0014633948
197	0x3c8362ff	0.016038416
198	0xbc677573	-0.014127123
199	0xbc301b56	-0.010748705
200	0x3cacc3c8	0.02108945
201	0x3c938c9c	0.018011384
202	0x3bc12886	0.0058947233
203	0x3b23a8d6	0.002497246
204	0xbb4a4a01	-0.0030866864
205	0x3cb6d933	0.022320366
206	0xbba530b6	-0.005041207
207	0x3bdc6cd7	0.006726842
208	0xbb015ed4	-0.001974036
209	0xbcb778c5	-0.022396455
210	0xbc939d2e	-0.018019285
211	0x3ca18196	0.019715112
212	0xbc1c939c	-0.009556677
213	0x3b7d2d4e	0.003863174
214	0xbc68f226	-0.014217889
215	0xbcacbb1c	-0.021085314
216	0x3c388645	0.011262481
217	0x3c22ad24	0.009928975
218	0x3c975402	0.018472675
219	0x3928e7b3	0.00016108043
220	0x3b58c943	0.0033078946
221	0xbc0da6bb	-0.008645709
222	0x3cc97af5	0.024594763
223	0x3c8d7d09	0.017271535
224	0xbcc8a3d6	-0.024492186
225	0xbc296eb9	-0.01034134
226	0x3a30bf4d	0.0006742373
227	0xbc69a1f8	-0.014259808
228	0x3c9fb9fe	0.019497868
229	0x3b2bf404	0.0026237974
230	0x3c1877b6	0.009305885
231	0x3c7d77f2	0.015470492
232	0xbcdaae0a	-0.026694316
233	0xbcd7a50d	-0.02632382
234	0x3c764ddc	0.015033212
235	0x3cb17275	0.021661023
236	0x3c67969a	0.014135027
237	0x3b405281	0.002934605
238	0x3c8c8c24	0.017156668
239	0x3ce0f05c	0.027458362
240	0x3c11ef09	0.008907088
241	0xbc85e688	-0.016345277
242	0xbcbb089e	-0.022831257
243	0xbcc84af7	-0.024449809
244	0xbcabe46e	-0.020982947
245	0xbc99fe8d	-0.018798137
246	0xbccd3861	-0.025051298
247	0x3c5098f3	0.012731778
248	0xbb5a606c	-0.0033321632
249	0xbacc1402	-0.0015569928
250	0x3bffae41	0.007802755
251	0xbc44ee10	-0.012019649
252	0xbc419045	-0.011814182
253	0x3c6c1118	0.014408372
254	0xbcb0a964	-0.021565147
255	0xbb1c192d	-0.0023818717

layer_3.bias f4 [3]
0	0xbbfe8e92	-0.0077684605
1	0x38d676a4	0.00010226414
2	0x3c9bd652	0.019023094
