artifacts/1/7f5a3de7917443738adb118b59961819/artifacts/pytorch-model/data/model.pth (torch, 966679 bytes, 6 tensors)

weight f4 [128, 3, 9, 9]
0.032555822 -0.008139053 -0.034465678 0.059002593 0.047047835 0.014082362 0.010892868 -0.023105651
0.0006017843 -0.045324992 0.046102688 -0.03401504 0.004009026 0.057319105 -0.045540206 0.058986884
-0.005116948 -0.055426843 -0.029733192 0.004251051 0.023648353 0.0018034815 0.056109697 -0.056786623
0.01303116 0.03643068 0.05687416 -0.02382654 0.043542083 0.05333932 -0.012490818 -0.039457977
-0.048336416 -0.023888566 -0.014592152 0.0462967 -0.05529671 -0.04616491 -0.05921821 -0.04299714
0.045069057 0.044813104 -0.03043095 0.011621768 -0.056433972 -0.026389418 -0.046666764 -0.015150498
0.0635611 -0.019534072 0.05354495 0.03818903 -0.014311462 -0.01967706 0.0339185 -0.06004169
0.036847007 -0.06119883 0.0026504146 0.025068935 0.046303827 -0.009813838 0.031423893 -0.05955233
0.03600867 0.037840296 0.05231613 0.03157472 -0.055383988 0.03600879 0.0063573974 0.04589068
-0.03823679 0.03298376 -0.034586467 -0.05247766 0.057339888 -0.05405659 -0.014960058 0.00039673797
0.03273597 0.0032599252 -0.03045432 0.005318459 0.009179268 0.002971128 -0.037778463 -0.04277425
-0.035658367 -0.047296803 -0.026244966 0.0326743 0.040329624 0.010728412 0.040789235 -0.050757818
-0.023442324 -0.0486581 0.023832189 0.012929872 -0.056446318 -0.02702734 0.0029948822 0.06011071
-0.05789165 -0.032056533 0.048624504 0.055568762 -0.007844996 -0.04873729 -0.035181653 -0.034230348
-0.0479131 -0.03646166 0.012520372 -0.059240688 -0.005042535 0.054425407 0.011674685 0.021509768
0.022848427 -0.0076168543 -0.03774193 -0.060568918 0.015911689 -0.0024164242 -0.02918238 0.020576922
0.019405628 -0.023971612 -0.0239898 -0.017901203 0.05379087 -0.011813041 0.0011616342 0.04417955
-0.014231145 -0.03497906 0.036835458 0.021207547 -0.023166278 -0.010629725 0.014470989 -0.0024028842
0.015689459 0.02341832 0.02451751 0.04156596 -0.016731773 -0.03821379 -0.05469027 0.04233377
-0.0039063487 -0.026370628 0.038597286 0.014036348 0.053644866 0.032659747 -0.0023249297 -0.042202916
0.054174487 0.034644935 -0.056513343 0.02084783 0.012768814 -0.008614662 -0.022357991 -0.021229958
0.033176247 0.0019500784 -0.034495827 0.020244049 0.00323745 -0.0018145624 0.009264422 0.0020903738
0.050115388 0.000298367 -0.005756367 -0.031268988 -0.05166765 -0.023974787 -0.035995007 0.017139453
-0.048449993 0.038218033 0.049325645 0.025413355 0.044204738 -0.027163854 0.014724862 0.04734459
-0.05219622 0.054877605 -0.05085626 -0.056217916 -0.032933094 -0.04147865 0.019806962 -0.04649187
-0.03602301 -0.0054775686 -0.044980694 -0.018013792 0.017691754 -0.026638566 -0.06114462 -0.016364254
-0.061051816 0.01626811 -0.0064395457 -0.044074405 -0.03204973 -0.022404324 -0.0029248227 0.049626466
0.058024935 -0.03887709 -0.008944678 -0.017818116 0.045285653 -0.051461045 0.014046176 0.020911688
0.03233981 0.011076528 0.04989419 0.040921472 0.014770611 0.029468805 -0.04508255 0.06496518
0.037238415 0.06427605 0.023107903 0.028696258 0.023431627 0.040086728 0.05124478 0.06187667
0.06508261 0.02367811 -0.005631124 -0.024464244 0.03877038 -0.0031671803 0.053147834 -0.008191379
-0.005794743 -0.0199559 0.046859056 0.06127672 -0.017176347 0.049587205 0.025362818 -0.063154906
00000000: 4159 053d aa59 05bc e22b 0dbd b4ac 713d
00000010: 3bb5 403d b5b9 663c 0078 323c 1048 bdbc
00000020: 10c1 1d3a b3a6 39bd 2cd6 3c3d 5b53 0bbd
00000030: 265e 833b 70c7 6a3d 5e88 3abd 3b9c 713d
00000040: 12ac a7bb 4207 63bd 0693 f3bc 674c 8b3b
00000050: 31ba c13c cc62 ec3a 48d3 653d 1799 68bd
00000060: a680 553c 5638 153d e1f4 683d e02f c3bc
00000070: 2f59 323d 557a 5a3d 4aa6 4cbc b09e 21bd
00000080: 68fc 45bd f4b1 c3bc ec13 6fbc 9ca1 3d3d
00000090: ce7e 62bd 6b17 3dbd cb8e 72bd c51d 30bd
000000a0: 559a 383d f28d 373d 544a f9bc 3a69 3e3c
000000b0: 4f27 67bd 9f2e d8bc a625 3fbd cb39 78bc
000000c0: 522c 823d eb05 a0bc f351 5b3d 1a6c 1c3d
000000d0: 9f7a 6abc c931 a1bc 20ee 0a3d 46ee 75bd
000000e0: e3ec 163d a0ab 7abd 94b2 2d3b 5e5d cd3c
000000f0: 15a9 3d3d 38ca 20bc 57b6 003d 25ed 73bd
00000100: d47d 133d 6dfe 1a3d 7049 563d 7e54 013d
00000110: 52da 62bd f47d 133d b751 d03b def7 3b3d
00000120: 2e9e 1cbd fb19 073d 8aaa 0dbd d1f2 56bd
00000130: 3bdd 6a3d 716a 5dbd 081b 75bc 4501 d039
00000140: 2716 063d 78a4 553b 577b f9bc 7846 ae3b
00000150: a464 163c 42b7 423b 97bd 1abd 0d34 2fbd
00000160: 820e 12bd 4bba 41bd afff d6bc 7dd5 053d
00000170: ad30 253d 39c6 2f3c 9d12 273d 6ee7 4fbd
00000180: 1e0a c0bc b74d 47bd b93b c33c d0d7 533c
00000190: 4134 67bd 7168 ddbc c945 443b a636 763d
000001a0: cb1f 6dbd b64d 03bd 7d2a 473d 129c 633d
000001b0: 4c88 00bc c1a0 47bd a31a 10bd 1f35 0cbd
000001c0: 8740 44bd d258 15bd 3f22 4d3c 5da6 72bd
000001d0: d93b a5bb 2ded 5e3d 2e47 3f3c 4135 b03c
000001e0: a02c bb3c ce96 f9bb 4897 1abd 1d17 78bd
000001f0: 3b59 823c df5c 1ebb e30f efbc ef90 a83c
00000200: 8df8 9e3c 1d60 c4bc 4286 c4bc 8ba5 92bc
00000210: d153 5c3d 7c8b 41bc fa41 983a 9ef5 343d
00000220: c029 69bc 3446 0fbd c7e0 163d 73bb ad3c
00000230: 35c7 bdbc 4c28 2ebc ba17 6d3c b579 1dbb
00000240: 2e87 803c c7d7 bf3c f2d8 c83c 1141 2a3d
00000250: 1211 89bc 1086 1cbd e802 60bd 2d66 2d3d
00000260: d400 80bb 3707 d8bc 3018 1e3d b6f8 653c
00000270: b8ba 5b3d 3ac6 053d d95d 18bb f7dc 2cbd
00000280: 11e6 5d3d d9e7 0d3d 897a 67bd 12c9 aa3c
00000290: 4a34 513c 8324 0dbc 1b28 b7bc 73ea adbc
000002a0: d1e3 073d c699 ff3a 7f4b 0dbd d9d6 a53c
000002b0: 662b 543b 9cd6 edba cdc9 173c a7fe 083b
000002c0: cb45 4d3d 246e 9c39 e89f bcbb e913 00bd
000002d0: 75a1 53bd c666 c4bc 806f 13bd 0a68 8c3c
000002e0: 8073 46bd 838a 1c3d b009 4a3d ab2f d03c
000002f0: 0710 353d bb86 debc 8c40 713c 67ec 413d
00000300: b4cb 55bd 57c7 603d a74e 50bd c244 66bd
00000310: dae4 06bd 84e5 29bd 3642 a23c 426e 3ebd
00000320: dd8c 13bd 2d7d b3bb ad3d 38bd a991 93bc
00000330: 4cee 903c 1f39 dabc c872 7abd 540e 86bc
00000340: 7811 7abd b344 853c d302 d3bb 5d87 34bd
00000350: 9446 03bd 4689 b7bc 62ae 3fbb 1f45 4b3d
00000360: 8eab 6d3d 953d 1fbd b38c 12bc 4cf7 91bc
00000370: 737d 393d d1c8 52bd ef21 663c fd4e ab3c
00000380: c076 043d 537a 353c da5d 4c3d 469d 273d
00000390: 6f00 723c 9068 f13c 7ba8 38bd 770c 853d
000003a0: 4f87 183d 29a3 833d c94c bd3c 6a14 eb3c
000003b0: aff3 bf3c fb31 243d 0ce6 513d 6472 7d3d
000003c0: 084a 853d 99f8 c13c 4b85 b8bb 3d69 c8bc
000003d0: b1cd 1e3d 7890 4fbb 8bb1 593d 2235 06bc
000003e0: d4e1 bdbb 8e7a a3bc 48ef 3f3d 4cfd 7a3d
000003f0: 69b5 8cbc f41b 4b3d afc5 cf3c 5c57 81bd

bias f4 [128]
-0.03797575 0.026933275 -0.017211244 -0.03255523 0.038202554 0.026323264 -0.04049888 -0.03426354
0.03399915 0.0077609406 0.051470976 -0.037537873 -0.036726274 0.0025618298 -0.04233253 -0.037170984
-0.008747206 0.0067388364 0.05349743 0.024609651 0.001176289 0.021221943 -0.042925663 -0.029926777
-0.042982176 -0.0038797143 0.058933705 -0.053196687 0.029660689 0.011103727 -0.013447561 -0.010908506
-0.021299928 0.0022420348 -0.052779388 -0.057870705 -0.060311116 -0.011645633 -0.03146588 0.0129500795
-0.017089583 -0.042571947 0.0015270973 0.060725905 0.0025728995 -0.025619334 -0.024867252 -0.021851718
-0.038297765 -0.045145046 -0.05463663 -0.00045162236 -0.050430875 -0.00853198 -0.045615464 0.008279543
0.05260845 0.015844733 -0.04206734 -0.05497713 0.013324058 0.026214987 -0.059095122 -0.05044566
-0.058643166 0.056919552 0.041367844 0.0008284486 -0.053806756 -0.04800987 0.031770874 -0.038366713
-0.057380304 -0.013148737 0.020016292 -0.026341513 -0.058143035 -0.0005026548 0.017442722 -0.05471278
0.027118368 -0.043453023 0.025787834 0.051398296 0.03850963 0.0058921813 -0.042220045 0.018918417
0.054530364 -0.06059561 0.04158153 0.023332648 0.038327754 -0.05174162 0.032947518 -0.0496039
0.06281148 0.0037018515 -0.04975207 -0.042474687 -0.05353858 0.003996244 0.009373848 0.008172228
-0.00092704594 -0.014331599 0.013798285 0.028219104 0.023472514 0.03399208 -0.03096802 0.039816957
-0.0575768 0.062512115 0.040064894 0.01508516 -0.011228556 0.01915578 -0.010287608 0.039040137
0.014805246 0.05060036 -0.04845937 0.04401946 0.06530394 -0.033470362 -0.03443265 0.007884079
00000000: 768c 1bbd 2ca3 dc3c 98fe 8cbc a258 05bd
00000010: 487a 1c3d e3a3 d73c 27e2 25bd ed57 0cbd
00000020: b142 0b3d 7d4f fe3b 3bd3 523d 50c1 19bd
00000030: 4a6e 16bd 5fe4 273b e064 2dbd 9a40 18bd
00000040: 7150 0fbc 75d1 dc3b 1f20 5b3d 2e9a c93c
00000050: b62d 9a3a a4d9 ad3c d2d2 2fbd 0029 f5bc
00000060: 140e 30bd ce42 7ebb 7864 713d c5e4 59bd
00000070: f9fa f23c 68ec 353c 2953 5cbc 97b9 32bc
00000080: 307d aebc 1aef 123b 332f 58bd d509 6dbd
00000090: ca08 77bd 53cd 3ebc 5ee2 00bd 922c 543c
000000a0: 74ff 8bbc ec5f 2ebd e228 c83a babb 783d
000000b0: 179e 283b a3df d1bc 68b6 cbbc 6002 b3bc
000000c0: 1ede 1cbd 03ea 38bd a9ca 5fbd bac7 ecb9
000000d0: 9b90 4ebd b8c9 0bbc 48d7 3abd eca6 073c
000000e0: f57b 573d d0cc 813c ce4e 2cbd b32f 61bd
000000f0: 264d 5a3c d0c0 d63c ba0d 72bd 1ca0 4ebd
00000100: d133 70bd 7a24 693d 5471 293d 3f2c 593a
00000110: 7964 5cbd ffa5 44bd 2d22 023d 6a26 1dbd
00000120: 9c07 6bbd cd6d 57bc 35f9 a33c 28ca d7bc
00000130: 6427 6ebd 98c4 03ba 0ae4 8e3c 821a 60bd
00000140: 5727 de3c ccfb 31bd 0241 d33c 0587 523d
00000150: 46bc 1d3d 3313 c13b edee 2cbd ccfa 9a3c
00000160: 3b5b 5f3d 1a33 78bd 6551 2a3d 1c24 bf3c
00000170: 90fd 1c3d 05ef 53bd faf3 063d 762d 4bbd
00000180: 4ea3 803d c39a 723b d4c8 4bbd f0f9 2dbd
00000190: 454b 5bbd edf2 823b c594 193c cfe4 053c
000001a0: 0005 73ba 15cf 6abc 3412 623c c02b e73c
000001b0: 6e49 c03c 473b 0b3d a5b0 fdbc 1b17 233d
000001c0: a7d5 6bbd 5a06 803d 161b 243d bf27 773c
000001d0: faf7 37bc 95ec 9c3c 5b8d 28bc 8de8 1f3d
000001e0: b491 723c 5342 4f3d 557d 46bd c04d 343d
000001f0: 12be 853d 3818 09bd 4009 0dbd 392c 013c

weight f4 [64, 128, 5, 5]
0.011417418 0.016073916 0.004728354 -0.007458079 -0.0005954012 -0.00693233 0.014181404 0.0060778
0.016141497 -0.004285966 -0.0043892222 0.0035431928 0.009242892 -0.00051552453 -0.0024629363 0.014571881
-0.006008459 -0.009986418 -0.015520034 0.0091656735 -0.013988999 0.0045306236 -0.01685411 -0.005291979
0.001853294 -0.015533583 0.0047258115 -0.009059857 -0.015567795 -0.016406948 0.00621894 0.014396188
-0.0009083917 -0.0033499931 0.0035215504 -0.011608571 0.0034119901 -0.009206363 -0.015793508 -0.0142072635
-0.0054195784 -0.012646279 -7.827574e-05 0.009335053 0.013852534 0.0071177897 -0.006113326 -0.0043693613
-0.004086656 0.0015550005 0.0058224364 0.00073450396 0.0008075681 0.0002630309 0.008196297 -0.006661523
0.006106757 0.013899615 -0.0015376452 -0.006016773 -0.017164396 0.010978101 -0.016511932 0.012976367
-0.011672503 -0.004047952 -0.0020989797 0.0016083145 -0.015302086 0.01638057 0.010960851 -0.0033264374
-0.009921967 -0.006845437 0.0041387035 0.009042857 -0.009119299 0.011450599 -0.0026595532 -0.00085538445
-0.010398383 -0.00036254668 0.012393983 0.0018144269 -0.009284885 0.0042878846 -0.0016394656 -0.010153758
-0.0014954673 -0.01675192 -0.013653696 0.011173152 0.0066802255 -0.007834801 -0.0016503577 -0.013753368
0.007533367 0.0052304473 -0.0046354956 0.013208059 -0.014037332 -0.0005075742 0.007360017 0.0008142484
0.014794362 -0.0097906515 0.0088909175 0.013911871 0.0104211345 0.009593759 0.008489771 0.0028653415
-0.014808708 -0.0017090113 -0.0109848585 -0.0016629564 0.0017583887 -0.0064634806 -0.014604621 -0.007024732
0.0042916015 0.010832274 0.016883248 -0.00013879577 -0.0021650922 0.013442084 0.015375947 -0.0035708833
0.008882451 0.008831541 0.0048461994 0.008217718 0.0076974225 0.014105932 -0.001233521 -0.014696414
-0.0035074844 0.015065764 0.009352918 0.006549806 -0.017718015 -0.017468203 -0.0068436 -0.0023781923
-0.012759677 -0.017855162 -0.014231996 -0.009326471 -0.010646474 0.005734119 0.0017599815 0.007609004
0.016043626 0.010539696 0.011654019 -0.005316017 -0.011911778 -0.0124892695 -0.018364172 -0.0069440934
0.0004015456 0.0008773345 0.012893477 -0.016606167 -0.01335511 -0.009174175 0.0075546717 0.0004282329
0.00456378 0.0013468689 -0.009326361 -0.010442383 0.016968012 -0.005217074 -0.008406978 0.016038483
0.012077374 -0.009150096 0.00048211904 -0.0034489278 -0.015771385 0.011359909 -0.00026056913 -0.007772791
0.007795336 -0.0009877905 0.013108592 -0.012906501 -0.0037240745 0.009516851 0.016243057 0.0012711062
0.015859017 0.016686626 -0.011587198 -0.0008146172 0.0069809644 0.0039997716 -0.013151244 -0.010571973
-0.010036574 -0.0017048322 0.013825975 -0.004958799 -0.0055525163 0.0053459974 0.0018730266 -0.005387486
0.0026436585 0.0063930308 -0.0155402655 -0.0047087893 -0.011313576 -0.012971712 0.007648318 0.015195543
0.012416431 -0.008150792 0.0030765117 -0.011641992 -0.00614442 -0.008988162 0.015024148 -0.002809675
-0.0017555561 0.015018037 -0.013466436 0.010298147 -0.010023792 -0.00072304346 0.008616114 0.016177958
-0.010051978 -0.009486407 0.01509655 0.0131735215 -0.008153142 0.010975982 -0.008182197 -0.016370641
-0.0027881106 0.0038672257 -0.01817547 -0.0026652364 0.014059448 0.010775531 0.00082141516 0.003954479
-0.011393009 -0.01680132 0.010473064 -0.012789829 -0.01822699 -0.0011295493 -0.015037237 -0.008626188
00000000: 1f10 3b3c 72ad 833c 4ff0 9a3b e762 f4bb
00000010: b314 1cba 9928 e3bb 1f59 683c 4828 c73b
00000020: 2c3b 843c 4a71 8cbb 77d3 8fbb e934 683b
00000030: 806f 173c 4424 07ba 3769 21bb e6be 6e3c
00000040: 9be2 c4bb 139e 23bc be47 7ebc 9f2b 163c
00000050: 1d32 65bc a075 943b a111 8abc 5668 adbb
00000060: 3aea f23a 9280 7ebc fbda 9a3b cb6f 14bc
00000070: 1110 7fbc dd67 86bc 40c8 cb3b fddd 6b3c
00000080: 2321 6eba 8f8b 5bbb d0c9 663b e031 3ebc
00000090: b29b 5f3b 49d6 16bc 6361 81bc 95c5 68bc
000000a0: b896 b1bb 5732 4fbc f827 a4b8 0df2 183c
000000b0: bdf5 623c 593c e93b 4c52 c8bb dc2c 8fbb
000000c0: 5be9 85bb 29d1 cb3a 23ca be3b ba8b 403a
000000d0: fab2 533a 69e7 8939 c349 063c e848 dabb
000000e0: 311b c83b 36bb 633c d08a c9ba 5a28 c5bb
000000f0: 599c 8cbc 7edd 333c 0844 87bc d49a 543c
00000100: 073e 3fbc afa4 84bb 098f 09bb 14ce d23a
00000110: 9ab5 7abc 8c30 863c 2495 333c 5c00 5abb
00000120: bf8f 22bc b04f e0bb f69d 873b 7e28 143c
00000130: 1d69 15bc 4b9b 3b3c e64b 2ebb e13b 60ba
00000140: fb5d 2abc 3114 beb9 2210 4b3c 10d2 ed3a
00000150: a11f 18bc 6281 8c3b 56e3 d6ba f35b 26bc
00000160: 8e03 c4ba 533b 89bc c0b3 5fbc 990f 373c
00000170: cbe5 da3b 8a5d 00bc d150 d8ba ce55 61bc
00000180: 76da f63b 2c64 ab3b 5be5 97bb 9d66 583c
00000190: d6fc 65bc ba0e 05ba 4c2c f13b 4973 553a
000001a0: 0d64 723c f868 20bc 36ab 113c 9eee 633c
000001b0: 68bd 2a3c 242f 1d3c ae18 0b3c 74c8 3b3b
000001c0: 39a0 72bc e700 e0ba d6f9 33bc 8ff7 d9ba
000001d0: bc79 e63a 9bcb d3bb 3848 6fbc b92f e6bb
000001e0: 90a0 8c3b da79 313c bd4e 8a3c b589 11b9
000001f0: 38e4 0dbb 303c 5c3c 65eb 7b3c 7b05 6abb
00000200: b387 113c 2bb2 103c decc 9e3b 9ca3 063c
00000210: a93a fc3b 911c 673c 19ae a1ba 3ac9 70bc
00000220: d3dd 65bb 65d6 763c fb3c 193c c19f d63b
00000230: 5f25 91bc 7a19 8fbc 4740 e0bb 72db 1bbb
00000240: f70d 51bc fd44 92bc 512d 69bc 0ece 18bc
00000250: 8c6e 2ebc 47e5 bb3b 2eaf e63a f454 f93b
00000260: ec6d 833c b0ae 2c3c 80f0 3e3c fc31 aebb
00000270: 9e29 43bc cb9f 4cbc 7670 96bc 478b e3bb
00000280: 8a86 d239 ecfc 653a 2a3f 533c a809 88bc
00000290: 64cf 5abc 474f 16bc 2e8d f73b 7284 e039
000002a0: c38b 953b 6c89 b03a 98cd 18bc 8716 2bbc
000002b0: 8000 8b3c fdf3 aabb 6cbd 09bc 2363 833c
000002c0: 2ee0 453c 49ea 15bc ecc4 fc39 6807 62bb
000002d0: fe32 81bc e91e 3a3c ff9c 88b9 e6b2 febb
000002e0: 0570 ff3b c078 81ba 6bc5 563c ca75 53bc
000002f0: 9a0f 74bb 91ec 1b3c 2910 853c 3f9b a63a
00000300: c5ea 813c 64b2 883c 3bd8 3dbc 098c 55ba
00000310: 93c0 e43b 8410 833b 5178 57bc 1236 2dbc
00000320: 7170 24bc ad74 dfba 5886 623c 6c7d a2bb
00000330: e2f1 b5bb 7a2d af3b 5880 f53a 8289 b0bb
00000340: 3b41 2d3b a17c d13b 999c 7ebc 304c 9abb
00000350: 945c 39bc 4e87 54bc be9e fa3b baf6 783c
00000360: 496e 4b3c e68a 05bc 4d9f 493b 0ebe 3ebc
00000370: 2157 c9bb 1543 13bc d827 763c 8622 38bb
00000380: b01a e6ba 360e 763c 54a2 5cbc 8fb9 283c
00000390: d53a 24bc a08a 3dba 9a2a 0d3c a387 843c
000003a0: 0db1 24bc e06c 1bbc 8557 773c c1d5 573c
000003b0: c294 05bc 9bd4 333c 9f0e 06bc b91b 86bc
000003c0: bcb8 36bb 4871 7d3b b9e4 94bc 3fab 2ebb
000003d0: 9959 663c da8b 303c 3d54 573a 9394 813b
000003e0: bea9 3abc eca2 89bc 3797 2b3c 6e8c 51bc
000003f0: c550 95bc 630d 94ba be5e 76bc db54 0dbc

bias f4 [64]
0.0033187023 0.0022484625 0.015088366 0.002987811 -0.007628127 0.015291593 0.0071796663 -0.01358568
-0.0003596407 0.00096481945 -0.014827918 0.005575058 -0.012944313 -0.008813199 -0.008763609 -0.0058073686
-0.015199599 0.012952881 0.011225063 0.015995802 -0.014010638 -0.008064663 0.0068989596 -0.016663766
-0.016857103 -0.008858379 0.008146418 0.014298966 -0.016442953 -0.002626149 0.0013302986 0.016711371
-0.011642432 -0.005976134 0.00467205 -0.016574977 0.008163613 -0.0048209596 -0.00207781 0.010695341
-0.004205689 -0.010634945 -0.011936619 -0.008149192 -0.006247095 -0.009801241 -0.006094829 0.010185716
0.012047426 -0.0040806984 -0.008225707 0.005963557 0.004804901 0.017015949 0.015836515 -0.008149036
-0.008671495 -0.009376031 -0.016325483 -0.009510139 0.016708406 0.01339736 0.015718078 0.004286224
00000000: 967e 593b f15a 133b 3235 773c 27cf 433b
00000010: 5ef5 f9bb 9789 7a3c 6843 eb3b 7996 5ebc
00000020: 288e bcb9 f0eb 7c3a ccf0 72bc faae b63b
00000030: 6214 54bc 3c65 10bc 3e95 0fbc bd4b bebb
00000040: bd07 79bc 5238 543c 54e9 373c a109 833c
00000050: e08c 65bc a621 04bc ab10 e23b 7382 88bc
00000060: e817 8abc bc22 11bc 8e78 053c 3646 6a3c
00000070: 5fb3 86bc 781b 2cbb 6a5d ae3a 49e6 883c
00000080: e6bf 3ebc 72d3 c3bb ff17 993b 3fc8 87bc
00000090: adc0 053c 24f9 9dbb de2b 08bb 833b 2f3c
000000a0: e0cf 89bb 313e 2ebc cf91 43bc 3084 05bc
000000b0: 6eb4 ccbb 6295 20bc 22b7 c7bb fde1 263c
000000c0: 9162 453c 61b7 85bb 1ec5 06bc f169 c33b
000000d0: 6e72 9d3b 0865 8b3c 94bb 813c 8983 05bc
000000e0: e312 0ebc ed9d 19bc 05bd 85bc 6ad0 1bbc
000000f0: 11e0 883c 9a80 5b3c 33c3 803c 7473 8c3b

weight f4 [3, 64, 5, 5]
-0.020175925 0.01224455 0.01246234 0.022129752 -0.011288853 -5.6969857e-05 -0.007636359 -0.023215242
-0.022234362 0.023219036 0.00018550217 0.011188517 -0.0061029266 -0.012171424 0.014937936 -0.015622115
-0.02264938 0.009805154 0.0027323426 -0.005804654 0.0063000442 -0.013422694 -0.01107581 0.017942287
-0.021011561 -0.018296912 0.02252553 -0.008877736 0.021383181 0.006538297 -0.0014842241 -0.005524596
0.005486099 -3.653971e-05 -0.010010732 -0.017502403 0.013152053 -0.021150723 -0.011299021 0.007147704
0.014439568 -0.017751293 0.0020460822 -0.018685328 -0.0034222165 0.0074976617 -0.01773838 -0.0059724213
-0.0013530244 -0.019030523 0.015768064 0.015287669 -0.023553118 -0.0020854655 0.021993691 -0.006518432
0.008449184 0.01923312 -0.018264528 -0.016998872 -0.0041187606 0.019277433 0.0045017367 -0.0120718675
-0.02301617 -0.0054747355 0.019073969 0.011265425 0.01989517 -0.021058014 0.009027117 -0.022989433
0.025459887 -0.0025292768 0.0075329486 0.017019173 -0.022672636 -0.0028782538 0.017761417 -0.021903906
0.013900029 0.0023227385 0.012792003 -0.009263782 -0.0039810166 -0.005593747 -0.016829008 -0.016392434
-0.007155327 0.024203602 0.0027826703 0.0035384498 -0.015417302 -0.004090922 -0.0056417156 0.014160196
0.0049683265 -0.0069776326 0.021147003 0.004408953 -0.014440959 0.0010414298 -0.01750265 0.0057182764
0.0024508955 0.021634234 -0.022101535 -0.016729537 -0.010179094 0.02185137 -0.02180413 0.012938226
-0.00037312155 0.022349725 0.0066876397 -0.00833496 -0.0031721492 0.012354954 -0.015188315 -0.022294685
0.00632788 -0.007014586 -0.008038887 -0.014807372 0.018389096 0.021525286 0.0045995475 -0.011880328
0.007063839 -0.009694022 0.012269623 -0.0015734618 -0.0007742744 -0.016327089 -0.0014930501 0.025701607
-0.0050712703 0.02380531 0.021968279 -0.022555234 0.017640842 -0.02181189 -0.020091455 9.982312e-05
0.020264557 0.0040259887 0.012515904 -0.0048881844 -0.02303562 -0.0065194853 0.018664034 0.017015785
0.022023423 -0.026159117 0.01598237 -0.014847733 0.012980332 -0.022682842 -0.019662334 -0.00819257
-0.010587958 -0.016598908 0.011445028 0.008812094 -0.003916925 -0.021242412 0.010227917 -0.019608624
-0.022949379 0.017340122 -0.02227222 0.013360969 0.009184247 -0.008428347 0.0002490434 0.0042465255
0.011877867 -0.007251645 0.0064798184 0.018473914 0.023363495 0.0023689086 -0.0056718825 0.01840389
0.011466341 0.023062378 -0.007660061 0.0009667366 0.00546391 -0.005052971 -0.018239303 0.015296037
0.018162344 -0.00057209487 -0.019603858 -0.013822572 0.021648748 0.0017935634 -0.014477829 -0.012539598
-0.018337183 0.012200193 -0.013063437 0.01981033 -0.022584971 -0.0120903 -0.015226603 0.0098459255
0.021995628 -0.0035882713 0.011637871 -0.018379744 0.014447173 -0.009496501 0.01440099 -0.005087408
-0.013809153 0.0028366125 0.015331647 -0.009886823 0.021818763 -0.024633683 -0.019855795 -0.0104934005
0.003483581 0.023328809 0.010862112 -0.022327691 -0.019903522 0.009547487 0.025331762 0.0052874484
-0.0068674856 -0.011254667 0.02041705 0.00888669 0.0016842536 0.020498512 -0.0031998237 -0.002369282
-0.0033033197 -0.00935647 0.0037564642 -0.016971707 0.0044700666 -0.0006665864 0.009169703 -0.009673183
0.0045714476 0.01976627 0.009029914 0.020909075 -0.01822162 -0.007920613 0.0077724825 -0.012665397
00000000: fb47 a5bc 5d9d 483c d82e 4c3c 7449 b53c
00000010: e2f4 38bc ebf2 6eb8 6c3a fabb e42d bebc
00000020: d624 b6bc d935 be3c 5c83 4239 0b50 373c
00000030: 0ffb c7bb a76a 47bc 3fbe 743c e6f3 7fbc
00000040: 318b b9bc cca5 203c 1a11 333b f834 bebb
00000050: 9a70 ce3b dcea 5bbc 5077 35bc b4fb 923c
00000060: 7020 acbc 68e3 95bc 7687 b83c ec73 11bc
00000070: c82b af3c 363f d63b 4c8a c2ba ac07 b5bb
00000080: bcc4 b33b 3742 19b8 0e04 24bc 3361 8fbc
00000090: b57b 573c 4844 adbc 871f 39bc 4937 ea3b
000000a0: f093 6c3c 296b 91bc 9017 063b f911 99bc
000000b0: 4447 60bb f2ae f53b 1450 91bc 4db4 c3bb
000000c0: f757 b1ba e6e5 9bbc 072c 813c 2279 7a3c
000000d0: 78f2 c0bc 4eac 08bb 1d2c b43c 9298 d5bb
000000e0: 726e 0a3c c78e 9d3c 7e9f 95bc 3841 8bbc
000000f0: abf6 86bb b5eb 9d3c 4e83 933b 15c9 45bc
00000100: 688c bcbc 6965 b3bb 0341 9c3c 9e92 383c
00000110: 32fb a23c db81 acbc 79e6 133c 5654 bcbc
00000120: 4191 d03c 39c2 25bb f4d6 f63b cb6b 8b3c
00000130: f7bb b9bc 16a1 3cbb 6480 913c d26f b3bc
00000140: f2bc 633c 1639 183b 8d95 513c 1ec7 17bc
00000150: 3073 82bb c04b b7bb fddc 89bc 6d49 86bc
00000160: 3c77 eabb a246 c63c 765d 363b 56e5 673b
00000170: da98 7cbc 240d 86bb 24de b8bb 2b00 683c
00000180: 58cd a23b a0a4 e4bb 7b3c ad3c fa78 903b
00000190: c699 6cbc 9680 883a b861 8fbc 6160 bb3b
000001a0: 349f 203b 473a b13c 470e b5bc 620c 89bc
000001b0: 37c6 26bc a501 b33c 939e b2bc dafa 533c
000001c0: 879f c3b9 c516 b73c fd23 db3b 5b8f 08bc
000001d0: d5e3 4fbb 6f6c 4a3c 69d8 78bc 58a3 b6bc
000001e0: 1b5a cf3b 9dda e5bb 89b5 03bc 9f9a 72bc
000001f0: bba4 963c cc55 b03c cdb7 963b b5a5 42bc
00000200: c777 e73b add3 1ebc 8706 493c 9e3c ceba
00000210: adf8 4aba 63c0 85bc 73b2 c3ba 2d8c d23c
00000220: e62c a6bb 5a03 c33c d2f6 b33c c1c5 b8bc
00000230: 8783 903c d9ae b2bc d696 a4bc 2158 d138
00000240: db01 a63c 71ec 833b 820f 4d3c 102d a0bb
00000250: 32b5 bcbc 68a1 d5bb 51e5 983c b064 8b3c
00000260: 776a b43c a54b d6bc 76ed 823c e843 73bc
00000270: 75ab 543c 5ed1 b9bc e712 a1bc 213a 06bc
00000280: 1d79 2dbc 6ffa 87bc ed83 3b3c 9a60 103c
00000290: 8c59 80bb 9104 aebc fe92 273c 44a2 a0bc
000002a0: 5600 bcbc df0c 8e3c 3b74 b6bc f7e7 5a3c
000002b0: 8679 163c 0d17 0abc 0a92 8239 7026 8b3b
000002c0: 639b 423c 359f edbb a854 d43b 9b56 973c
000002d0: cd64 bf3c b13f 1b3b 33db b9bb c1c3 963c
000002e0: 52dd 3b3c 50ed bc3c 4001 fbbb 986c 7d3a
000002f0: 990a b33b 6593 a5bb 976a 95bc 3b9c 7a3c
00000300: 32c9 943c a3f8 15ba 4598 a0bc 1278 62bc
00000310: b758 b13c 0016 eb3a 6b34 6dbc e372 4dbc
00000320: dc37 96bc 51e3 473c 0708 56bc 4649 a23c
00000330: 1e04 b9bc 6516 46bc 0079 79bc ce50 213c
00000340: 2d30 b43c 3429 6bbb c5ac 3e3c 1e91 96bc
00000350: d6b3 6c3c 3697 1bbc 21f2 6b3c 45b4 a6bb
00000360: c93f 62bc 76e6 393b 9731 7b3c 57fc 21bc
00000370: 43bd b23c 94cc c9bc 9fa8 a2bc 83ec 2bbc
00000380: ca4c 643b 0f1c bf3c 00f7 313c 90e8 b6bc
00000390: b60c a3bc 106d 1c3c 8e84 cf3c 5542 ad3b
000003a0: a508 e1bb 7f65 38bc a841 a73c 7b99 113c
000003b0: 2cc2 dc3a 7fec a73c 22b4 51bb f545 1bbb
000003c0: 827c 58bb e14b 19bc 032f 763b 4008 8bbc
000003d0: a379 923b dbbd 2eba 863c 163c 457c 1ebc
000003e0: 15cc 953b dfec a13c 34f2 133c 8249 ab3c
000003f0: 8245 95bc 75c5 01bc 4fb0 fe3b 8682 4fbc

bias f4 [3]
0.00660895 0.022606866 0.021722468
00000000: e48f d83b 0932 b93c 51f3 b13c
